{
  "format": "graph-model",
  "generatedBy": "2.17.1",
  "convertedBy": "TensorFlow.js Converter v4.22.0",
  "signature": {
    "outputs": {
      "Identity:0": {
        "name": "Identity:0"
      }
    }
  },
  "modelTopology": {
    "node": [
      {
        "name": "ConstantFolding/model_58/tf.math.divide_1/truediv_recip",
        "op": "Const",
        "attr": {
          "dtype": {
            "type": "DT_FLOAT"
          },
          "value": {
            "tensor": {
              "dtype": "DT_FLOAT",
              "tensorShape": {
                "dim": [
                  {
                    "size": "1"
                  },
                  {
                    "size": "1"
                  },
                  {
                    "size": "1"
                  }
                ]
              }
            }
          }
        }
      },
      {
        "name": "model_58/73839",
        "op": "Const",
        "attr": {
          "value": {
            "tensor": {
              "dtype": "DT_FLOAT",
              "tensorShape": {
                "dim": [
                  {
                    "size": "1"
                  },
                  {
                    "size": "2"
                  },
                  {
                    "size": "8400"
                  }
                ]
              }
            }
          },
          "dtype": {
            "type": "DT_FLOAT"
          }
        }
      },
      {
        "name": "model_58/tf.strided_slice_45/ones_like/tensor",
        "op": "Const",
        "attr": {
          "dtype": {
            "type": "DT_INT64"
          },
          "value": {
            "tensor": {
              "dtype": "DT_INT64",
              "tensorShape": {
                "dim": [
                  {
                    "size": "3"
                  }
                ]
              }
            }
          }
        }
      },
      {
        "name": "model_58/tf.strided_slice_45/StridedSlice/end",
        "op": "Const",
        "attr": {
          "dtype": {
            "type": "DT_INT64"
          },
          "value": {
            "tensor": {
              "dtype": "DT_INT64",
              "tensorShape": {
                "dim": [
                  {
                    "size": "3"
                  }
                ]
              }
            }
          }
        }
      },
      {
        "name": "model_58/tf.strided_slice_45/ones_like",
        "op": "Const",
        "attr": {
          "dtype": {
            "type": "DT_INT64"
          },
          "value": {
            "tensor": {
              "dtype": "DT_INT64",
              "tensorShape": {
                "dim": [
                  {
                    "size": "3"
                  }
                ]
              }
            }
          }
        }
      },
      {
        "name": "model_58/73842",
        "op": "Const",
        "attr": {
          "value": {
            "tensor": {
              "dtype": "DT_FLOAT",
              "tensorShape": {
                "dim": [
                  {
                    "size": "1"
                  },
                  {
                    "size": "2"
                  },
                  {
                    "size": "8400"
                  }
                ]
              }
            }
          },
          "dtype": {
            "type": "DT_FLOAT"
          }
        }
      },
      {
        "name": "model_58/tf.strided_slice_42/StridedSlice/begin",
        "op": "Const",
        "attr": {
          "value": {
            "tensor": {
              "dtype": "DT_INT64",
              "tensorShape": {
                "dim": [
                  {
                    "size": "3"
                  }
                ]
              }
            }
          },
          "dtype": {
            "type": "DT_INT64"
          }
        }
      },
      {
        "name": "model_58/tf.strided_slice_42/StridedSlice/end",
        "op": "Const",
        "attr": {
          "value": {
            "tensor": {
              "dtype": "DT_INT64",
              "tensorShape": {
                "dim": [
                  {
                    "size": "3"
                  }
                ]
              }
            }
          },
          "dtype": {
            "type": "DT_INT64"
          }
        }
      },
      {
        "name": "model_58/tf.strided_slice_42/StridedSlice/strides",
        "op": "Const",
        "attr": {
          "value": {
            "tensor": {
              "dtype": "DT_INT64",
              "tensorShape": {
                "dim": [
                  {
                    "size": "3"
                  }
                ]
              }
            }
          },
          "dtype": {
            "type": "DT_INT64"
          }
        }
      },
      {
        "name": "model_58/tf.reshape_44/Reshape/shape",
        "op": "Const",
        "attr": {
          "value": {
            "tensor": {
              "dtype": "DT_INT32",
              "tensorShape": {
                "dim": [
                  {
                    "size": "4"
                  }
                ]
              }
            }
          },
          "dtype": {
            "type": "DT_INT32"
          }
        }
      },
      {
        "name": "model_58/tf.compat.v1.transpose_91/transpose/perm",
        "op": "Const",
        "attr": {
          "value": {
            "tensor": {
              "dtype": "DT_INT32",
              "tensorShape": {
                "dim": [
                  {
                    "size": "4"
                  }
                ]
              }
            }
          },
          "dtype": {
            "type": "DT_INT32"
          }
        }
      },
      {
        "name": "model_58/tf.compat.v1.transpose_92/transpose/perm",
        "op": "Const",
        "attr": {
          "value": {
            "tensor": {
              "dtype": "DT_INT32",
              "tensorShape": {
                "dim": [
                  {
                    "size": "4"
                  }
                ]
              }
            }
          },
          "dtype": {
            "type": "DT_INT32"
          }
        }
      },
      {
        "name": "model_58/tf.nn.convolution_417/convolution/filter",
        "op": "Const",
        "attr": {
          "value": {
            "tensor": {
              "dtype": "DT_FLOAT",
              "tensorShape": {
                "dim": [
                  {
                    "size": "1"
                  },
                  {
                    "size": "1"
                  },
                  {
                    "size": "16"
                  },
                  {
                    "size": "1"
                  }
                ]
              }
            }
          },
          "dtype": {
            "type": "DT_FLOAT"
          }
        }
      },
      {
        "name": "model_58/tf.compat.v1.transpose_97/transpose/perm",
        "op": "Const",
        "attr": {
          "value": {
            "tensor": {
              "dtype": "DT_INT32",
              "tensorShape": {
                "dim": [
                  {
                    "size": "4"
                  }
                ]
              }
            }
          },
          "dtype": {
            "type": "DT_INT32"
          }
        }
      },
      {
        "name": "model_58/tf.reshape_47/Reshape/shape",
        "op": "Const",
        "attr": {
          "value": {
            "tensor": {
              "dtype": "DT_INT32",
              "tensorShape": {
                "dim": [
                  {
                    "size": "3"
                  }
                ]
              }
            }
          },
          "dtype": {
            "type": "DT_INT32"
          }
        }
      },
      {
        "name": "model_58/tf.strided_slice_44/ones_like/tensor",
        "op": "Const",
        "attr": {
          "value": {
            "tensor": {
              "dtype": "DT_INT64",
              "tensorShape": {
                "dim": [
                  {
                    "size": "3"
                  }
                ]
              }
            }
          },
          "dtype": {
            "type": "DT_INT64"
          }
        }
      },
      {
        "name": "model_58/tf.strided_slice_44/StridedSlice/end",
        "op": "Const",
        "attr": {
          "value": {
            "tensor": {
              "dtype": "DT_INT64",
              "tensorShape": {
                "dim": [
                  {
                    "size": "3"
                  }
                ]
              }
            }
          },
          "dtype": {
            "type": "DT_INT64"
          }
        }
      },
      {
        "name": "model_58/tf.strided_slice_44/ones_like",
        "op": "Const",
        "attr": {
          "value": {
            "tensor": {
              "dtype": "DT_INT64",
              "tensorShape": {
                "dim": [
                  {
                    "size": "3"
                  }
                ]
              }
            }
          },
          "dtype": {
            "type": "DT_INT64"
          }
        }
      },
      {
        "name": "model_58/tf.concat_52/concat/axis",
        "op": "Const",
        "attr": {
          "value": {
            "tensor": {
              "dtype": "DT_INT32",
              "tensorShape": {}
            }
          },
          "dtype": {
            "type": "DT_INT32"
          }
        }
      },
      {
        "name": "model_58/tf.math.multiply_701/Mul/y",
        "op": "Const",
        "attr": {
          "value": {
            "tensor": {
              "dtype": "DT_FLOAT",
              "tensorShape": {
                "dim": [
                  {
                    "size": "1"
                  },
                  {
                    "size": "1"
                  },
                  {
                    "size": "8400"
                  }
                ]
              }
            }
          },
          "dtype": {
            "type": "DT_FLOAT"
          }
        }
      },
      {
        "name": "model_58/tf.nn.convolution_385/convolution/filter",
        "op": "Const",
        "attr": {
          "value": {
            "tensor": {
              "dtype": "DT_FLOAT",
              "tensorShape": {
                "dim": [
                  {
                    "size": "3"
                  },
                  {
                    "size": "3"
                  },
                  {
                    "size": "64"
                  },
                  {
                    "size": "64"
                  }
                ]
              }
            }
          },
          "dtype": {
            "type": "DT_FLOAT"
          }
        }
      },
      {
        "name": "model_58/tf.math.add_188/Add/y",
        "op": "Const",
        "attr": {
          "dtype": {
            "type": "DT_FLOAT"
          },
          "value": {
            "tensor": {
              "dtype": "DT_FLOAT",
              "tensorShape": {
                "dim": [
                  {
                    "size": "64"
                  }
                ]
              }
            }
          }
        }
      },
      {
        "name": "model_58/tf.nn.convolution_386/convolution/filter",
        "op": "Const",
        "attr": {
          "value": {
            "tensor": {
              "dtype": "DT_FLOAT",
              "tensorShape": {
                "dim": [
                  {
                    "size": "3"
                  },
                  {
                    "size": "3"
                  },
                  {
                    "size": "64"
                  },
                  {
                    "size": "64"
                  }
                ]
              }
            }
          },
          "dtype": {
            "type": "DT_FLOAT"
          }
        }
      },
      {
        "name": "model_58/tf.math.add_190/Add/y",
        "op": "Const",
        "attr": {
          "value": {
            "tensor": {
              "dtype": "DT_FLOAT",
              "tensorShape": {
                "dim": [
                  {
                    "size": "64"
                  }
                ]
              }
            }
          },
          "dtype": {
            "type": "DT_FLOAT"
          }
        }
      },
      {
        "name": "model_58/tf.nn.convolution_389/convolution/filter",
        "op": "Const",
        "attr": {
          "dtype": {
            "type": "DT_FLOAT"
          },
          "value": {
            "tensor": {
              "dtype": "DT_FLOAT",
              "tensorShape": {
                "dim": [
                  {
                    "size": "1"
                  },
                  {
                    "size": "1"
                  },
                  {
                    "size": "64"
                  },
                  {
                    "size": "64"
                  }
                ]
              }
            }
          }
        }
      },
      {
        "name": "model_58/tf.math.add_193/Add/y",
        "op": "Const",
        "attr": {
          "value": {
            "tensor": {
              "dtype": "DT_FLOAT",
              "tensorShape": {
                "dim": [
                  {
                    "size": "64"
                  }
                ]
              }
            }
          },
          "dtype": {
            "type": "DT_FLOAT"
          }
        }
      },
      {
        "name": "model_58/tf.compat.v1.nn.depthwise_conv2d_6/depthwise/filter_in",
        "op": "Const",
        "attr": {
          "dtype": {
            "type": "DT_FLOAT"
          },
          "value": {
            "tensor": {
              "dtype": "DT_FLOAT",
              "tensorShape": {
                "dim": [
                  {
                    "size": "3"
                  },
                  {
                    "size": "3"
                  },
                  {
                    "size": "64"
                  },
                  {
                    "size": "1"
                  }
                ]
              }
            }
          }
        }
      },
      {
        "name": "model_58/tf.math.add_189/Add/y",
        "op": "Const",
        "attr": {
          "value": {
            "tensor": {
              "dtype": "DT_FLOAT",
              "tensorShape": {
                "dim": [
                  {
                    "size": "64"
                  }
                ]
              }
            }
          },
          "dtype": {
            "type": "DT_FLOAT"
          }
        }
      },
      {
        "name": "model_58/tf.nn.convolution_387/convolution/filter",
        "op": "Const",
        "attr": {
          "value": {
            "tensor": {
              "dtype": "DT_FLOAT",
              "tensorShape": {
                "dim": [
                  {
                    "size": "1"
                  },
                  {
                    "size": "1"
                  },
                  {
                    "size": "64"
                  },
                  {
                    "size": "64"
                  }
                ]
              }
            }
          },
          "dtype": {
            "type": "DT_FLOAT"
          }
        }
      },
      {
        "name": "model_58/tf.math.add_191/Add/y",
        "op": "Const",
        "attr": {
          "value": {
            "tensor": {
              "dtype": "DT_FLOAT",
              "tensorShape": {
                "dim": [
                  {
                    "size": "64"
                  }
                ]
              }
            }
          },
          "dtype": {
            "type": "DT_FLOAT"
          }
        }
      },
      {
        "name": "model_58/tf.compat.v1.nn.depthwise_conv2d_7/depthwise/filter_in",
        "op": "Const",
        "attr": {
          "dtype": {
            "type": "DT_FLOAT"
          },
          "value": {
            "tensor": {
              "dtype": "DT_FLOAT",
              "tensorShape": {
                "dim": [
                  {
                    "size": "3"
                  },
                  {
                    "size": "3"
                  },
                  {
                    "size": "64"
                  },
                  {
                    "size": "1"
                  }
                ]
              }
            }
          }
        }
      },
      {
        "name": "model_58/tf.math.add_194/Add/y",
        "op": "Const",
        "attr": {
          "dtype": {
            "type": "DT_FLOAT"
          },
          "value": {
            "tensor": {
              "dtype": "DT_FLOAT",
              "tensorShape": {
                "dim": [
                  {
                    "size": "64"
                  }
                ]
              }
            }
          }
        }
      },
      {
        "name": "model_58/tf.nn.convolution_391/convolution/filter",
        "op": "Const",
        "attr": {
          "dtype": {
            "type": "DT_FLOAT"
          },
          "value": {
            "tensor": {
              "dtype": "DT_FLOAT",
              "tensorShape": {
                "dim": [
                  {
                    "size": "1"
                  },
                  {
                    "size": "1"
                  },
                  {
                    "size": "64"
                  },
                  {
                    "size": "64"
                  }
                ]
              }
            }
          }
        }
      },
      {
        "name": "model_58/tf.math.add_196/Add/y",
        "op": "Const",
        "attr": {
          "dtype": {
            "type": "DT_FLOAT"
          },
          "value": {
            "tensor": {
              "dtype": "DT_FLOAT",
              "tensorShape": {
                "dim": [
                  {
                    "size": "64"
                  }
                ]
              }
            }
          }
        }
      },
      {
        "name": "model_58/tf.nn.convolution_393/convolution/filter",
        "op": "Const",
        "attr": {
          "value": {
            "tensor": {
              "dtype": "DT_FLOAT",
              "tensorShape": {
                "dim": [
                  {
                    "size": "1"
                  },
                  {
                    "size": "1"
                  },
                  {
                    "size": "64"
                  },
                  {
                    "size": "34"
                  }
                ]
              }
            }
          },
          "dtype": {
            "type": "DT_FLOAT"
          }
        }
      },
      {
        "name": "model_58/tf.math.add_198/Add/y",
        "op": "Const",
        "attr": {
          "value": {
            "tensor": {
              "dtype": "DT_FLOAT",
              "tensorShape": {
                "dim": [
                  {
                    "size": "34"
                  }
                ]
              }
            }
          },
          "dtype": {
            "type": "DT_FLOAT"
          }
        }
      },
      {
        "name": "model_58/tf.concat_41/concat/axis",
        "op": "Const",
        "attr": {
          "dtype": {
            "type": "DT_INT32"
          },
          "value": {
            "tensor": {
              "dtype": "DT_INT32",
              "tensorShape": {}
            }
          }
        }
      },
      {
        "name": "model_58/tf.compat.v1.transpose_74/transpose/perm",
        "op": "Const",
        "attr": {
          "dtype": {
            "type": "DT_INT32"
          },
          "value": {
            "tensor": {
              "dtype": "DT_INT32",
              "tensorShape": {
                "dim": [
                  {
                    "size": "4"
                  }
                ]
              }
            }
          }
        }
      },
      {
        "name": "model_58/tf.reshape_35/Reshape/shape",
        "op": "Const",
        "attr": {
          "value": {
            "tensor": {
              "dtype": "DT_INT32",
              "tensorShape": {
                "dim": [
                  {
                    "size": "3"
                  }
                ]
              }
            }
          },
          "dtype": {
            "type": "DT_INT32"
          }
        }
      },
      {
        "name": "model_58/tf.nn.convolution_396/convolution/filter",
        "op": "Const",
        "attr": {
          "dtype": {
            "type": "DT_FLOAT"
          },
          "value": {
            "tensor": {
              "dtype": "DT_FLOAT",
              "tensorShape": {
                "dim": [
                  {
                    "size": "3"
                  },
                  {
                    "size": "3"
                  },
                  {
                    "size": "128"
                  },
                  {
                    "size": "64"
                  }
                ]
              }
            }
          }
        }
      },
      {
        "name": "model_58/tf.math.add_203/Add/y",
        "op": "Const",
        "attr": {
          "value": {
            "tensor": {
              "dtype": "DT_FLOAT",
              "tensorShape": {
                "dim": [
                  {
                    "size": "64"
                  }
                ]
              }
            }
          },
          "dtype": {
            "type": "DT_FLOAT"
          }
        }
      },
      {
        "name": "model_58/tf.nn.convolution_397/convolution/filter",
        "op": "Const",
        "attr": {
          "value": {
            "tensor": {
              "dtype": "DT_FLOAT",
              "tensorShape": {
                "dim": [
                  {
                    "size": "3"
                  },
                  {
                    "size": "3"
                  },
                  {
                    "size": "64"
                  },
                  {
                    "size": "64"
                  }
                ]
              }
            }
          },
          "dtype": {
            "type": "DT_FLOAT"
          }
        }
      },
      {
        "name": "model_58/tf.math.add_205/Add/y",
        "op": "Const",
        "attr": {
          "value": {
            "tensor": {
              "dtype": "DT_FLOAT",
              "tensorShape": {
                "dim": [
                  {
                    "size": "64"
                  }
                ]
              }
            }
          },
          "dtype": {
            "type": "DT_FLOAT"
          }
        }
      },
      {
        "name": "model_58/tf.nn.convolution_400/convolution/filter",
        "op": "Const",
        "attr": {
          "dtype": {
            "type": "DT_FLOAT"
          },
          "value": {
            "tensor": {
              "dtype": "DT_FLOAT",
              "tensorShape": {
                "dim": [
                  {
                    "size": "1"
                  },
                  {
                    "size": "1"
                  },
                  {
                    "size": "64"
                  },
                  {
                    "size": "64"
                  }
                ]
              }
            }
          }
        }
      },
      {
        "name": "model_58/tf.math.add_208/Add/y",
        "op": "Const",
        "attr": {
          "dtype": {
            "type": "DT_FLOAT"
          },
          "value": {
            "tensor": {
              "dtype": "DT_FLOAT",
              "tensorShape": {
                "dim": [
                  {
                    "size": "64"
                  }
                ]
              }
            }
          }
        }
      },
      {
        "name": "model_58/tf.compat.v1.nn.depthwise_conv2d_8/depthwise/filter_in",
        "op": "Const",
        "attr": {
          "dtype": {
            "type": "DT_FLOAT"
          },
          "value": {
            "tensor": {
              "dtype": "DT_FLOAT",
              "tensorShape": {
                "dim": [
                  {
                    "size": "3"
                  },
                  {
                    "size": "3"
                  },
                  {
                    "size": "128"
                  },
                  {
                    "size": "1"
                  }
                ]
              }
            }
          }
        }
      },
      {
        "name": "model_58/tf.math.add_204/Add/y",
        "op": "Const",
        "attr": {
          "value": {
            "tensor": {
              "dtype": "DT_FLOAT",
              "tensorShape": {
                "dim": [
                  {
                    "size": "128"
                  }
                ]
              }
            }
          },
          "dtype": {
            "type": "DT_FLOAT"
          }
        }
      },
      {
        "name": "model_58/tf.nn.convolution_398/convolution/filter",
        "op": "Const",
        "attr": {
          "dtype": {
            "type": "DT_FLOAT"
          },
          "value": {
            "tensor": {
              "dtype": "DT_FLOAT",
              "tensorShape": {
                "dim": [
                  {
                    "size": "1"
                  },
                  {
                    "size": "1"
                  },
                  {
                    "size": "128"
                  },
                  {
                    "size": "64"
                  }
                ]
              }
            }
          }
        }
      },
      {
        "name": "model_58/tf.math.add_206/Add/y",
        "op": "Const",
        "attr": {
          "value": {
            "tensor": {
              "dtype": "DT_FLOAT",
              "tensorShape": {
                "dim": [
                  {
                    "size": "64"
                  }
                ]
              }
            }
          },
          "dtype": {
            "type": "DT_FLOAT"
          }
        }
      },
      {
        "name": "model_58/tf.compat.v1.nn.depthwise_conv2d_9/depthwise/filter_in",
        "op": "Const",
        "attr": {
          "dtype": {
            "type": "DT_FLOAT"
          },
          "value": {
            "tensor": {
              "dtype": "DT_FLOAT",
              "tensorShape": {
                "dim": [
                  {
                    "size": "3"
                  },
                  {
                    "size": "3"
                  },
                  {
                    "size": "64"
                  },
                  {
                    "size": "1"
                  }
                ]
              }
            }
          }
        }
      },
      {
        "name": "model_58/tf.math.add_209/Add/y",
        "op": "Const",
        "attr": {
          "dtype": {
            "type": "DT_FLOAT"
          },
          "value": {
            "tensor": {
              "dtype": "DT_FLOAT",
              "tensorShape": {
                "dim": [
                  {
                    "size": "64"
                  }
                ]
              }
            }
          }
        }
      },
      {
        "name": "model_58/tf.nn.convolution_403/convolution/filter",
        "op": "Const",
        "attr": {
          "value": {
            "tensor": {
              "dtype": "DT_FLOAT",
              "tensorShape": {
                "dim": [
                  {
                    "size": "1"
                  },
                  {
                    "size": "1"
                  },
                  {
                    "size": "64"
                  },
                  {
                    "size": "64"
                  }
                ]
              }
            }
          },
          "dtype": {
            "type": "DT_FLOAT"
          }
        }
      },
      {
        "name": "model_58/tf.math.add_212/Add/y",
        "op": "Const",
        "attr": {
          "dtype": {
            "type": "DT_FLOAT"
          },
          "value": {
            "tensor": {
              "dtype": "DT_FLOAT",
              "tensorShape": {
                "dim": [
                  {
                    "size": "64"
                  }
                ]
              }
            }
          }
        }
      },
      {
        "name": "model_58/tf.nn.convolution_405/convolution/filter",
        "op": "Const",
        "attr": {
          "value": {
            "tensor": {
              "dtype": "DT_FLOAT",
              "tensorShape": {
                "dim": [
                  {
                    "size": "1"
                  },
                  {
                    "size": "1"
                  },
                  {
                    "size": "64"
                  },
                  {
                    "size": "34"
                  }
                ]
              }
            }
          },
          "dtype": {
            "type": "DT_FLOAT"
          }
        }
      },
      {
        "name": "model_58/tf.math.add_214/Add/y",
        "op": "Const",
        "attr": {
          "value": {
            "tensor": {
              "dtype": "DT_FLOAT",
              "tensorShape": {
                "dim": [
                  {
                    "size": "34"
                  }
                ]
              }
            }
          },
          "dtype": {
            "type": "DT_FLOAT"
          }
        }
      },
      {
        "name": "model_58/tf.concat_44/concat/axis",
        "op": "Const",
        "attr": {
          "value": {
            "tensor": {
              "dtype": "DT_INT32",
              "tensorShape": {}
            }
          },
          "dtype": {
            "type": "DT_INT32"
          }
        }
      },
      {
        "name": "model_58/tf.compat.v1.transpose_79/transpose/perm",
        "op": "Const",
        "attr": {
          "value": {
            "tensor": {
              "dtype": "DT_INT32",
              "tensorShape": {
                "dim": [
                  {
                    "size": "4"
                  }
                ]
              }
            }
          },
          "dtype": {
            "type": "DT_INT32"
          }
        }
      },
      {
        "name": "model_58/tf.reshape_38/Reshape/shape",
        "op": "Const",
        "attr": {
          "value": {
            "tensor": {
              "dtype": "DT_INT32",
              "tensorShape": {
                "dim": [
                  {
                    "size": "3"
                  }
                ]
              }
            }
          },
          "dtype": {
            "type": "DT_INT32"
          }
        }
      },
      {
        "name": "model_58/tf.nn.convolution_411/convolution/filter",
        "op": "Const",
        "attr": {
          "dtype": {
            "type": "DT_FLOAT"
          },
          "value": {
            "tensor": {
              "dtype": "DT_FLOAT",
              "tensorShape": {
                "dim": [
                  {
                    "size": "3"
                  },
                  {
                    "size": "3"
                  },
                  {
                    "size": "256"
                  },
                  {
                    "size": "64"
                  }
                ]
              }
            }
          }
        }
      },
      {
        "name": "model_58/tf.math.add_224/Add/y",
        "op": "Const",
        "attr": {
          "value": {
            "tensor": {
              "dtype": "DT_FLOAT",
              "tensorShape": {
                "dim": [
                  {
                    "size": "64"
                  }
                ]
              }
            }
          },
          "dtype": {
            "type": "DT_FLOAT"
          }
        }
      },
      {
        "name": "model_58/tf.nn.convolution_412/convolution/filter",
        "op": "Const",
        "attr": {
          "dtype": {
            "type": "DT_FLOAT"
          },
          "value": {
            "tensor": {
              "dtype": "DT_FLOAT",
              "tensorShape": {
                "dim": [
                  {
                    "size": "3"
                  },
                  {
                    "size": "3"
                  },
                  {
                    "size": "64"
                  },
                  {
                    "size": "64"
                  }
                ]
              }
            }
          }
        }
      },
      {
        "name": "model_58/tf.math.add_226/Add/y",
        "op": "Const",
        "attr": {
          "value": {
            "tensor": {
              "dtype": "DT_FLOAT",
              "tensorShape": {
                "dim": [
                  {
                    "size": "64"
                  }
                ]
              }
            }
          },
          "dtype": {
            "type": "DT_FLOAT"
          }
        }
      },
      {
        "name": "model_58/tf.nn.convolution_414/convolution/filter",
        "op": "Const",
        "attr": {
          "value": {
            "tensor": {
              "dtype": "DT_FLOAT",
              "tensorShape": {
                "dim": [
                  {
                    "size": "1"
                  },
                  {
                    "size": "1"
                  },
                  {
                    "size": "64"
                  },
                  {
                    "size": "64"
                  }
                ]
              }
            }
          },
          "dtype": {
            "type": "DT_FLOAT"
          }
        }
      },
      {
        "name": "model_58/tf.math.add_228/Add/y",
        "op": "Const",
        "attr": {
          "dtype": {
            "type": "DT_FLOAT"
          },
          "value": {
            "tensor": {
              "dtype": "DT_FLOAT",
              "tensorShape": {
                "dim": [
                  {
                    "size": "64"
                  }
                ]
              }
            }
          }
        }
      },
      {
        "name": "model_58/tf.strided_slice_40/ones_like/tensor",
        "op": "Const",
        "attr": {
          "value": {
            "tensor": {
              "dtype": "DT_INT64",
              "tensorShape": {
                "dim": [
                  {
                    "size": "4"
                  }
                ]
              }
            }
          },
          "dtype": {
            "type": "DT_INT64"
          }
        }
      },
      {
        "name": "model_58/tf.strided_slice_40/StridedSlice/end",
        "op": "Const",
        "attr": {
          "dtype": {
            "type": "DT_INT64"
          },
          "value": {
            "tensor": {
              "dtype": "DT_INT64",
              "tensorShape": {
                "dim": [
                  {
                    "size": "4"
                  }
                ]
              }
            }
          }
        }
      },
      {
        "name": "model_58/tf.strided_slice_40/ones_like",
        "op": "Const",
        "attr": {
          "dtype": {
            "type": "DT_INT64"
          },
          "value": {
            "tensor": {
              "dtype": "DT_INT64",
              "tensorShape": {
                "dim": [
                  {
                    "size": "4"
                  }
                ]
              }
            }
          }
        }
      },
      {
        "name": "model_58/tf.nn.convolution_401/convolution/filter",
        "op": "Const",
        "attr": {
          "value": {
            "tensor": {
              "dtype": "DT_FLOAT",
              "tensorShape": {
                "dim": [
                  {
                    "size": "1"
                  },
                  {
                    "size": "1"
                  },
                  {
                    "size": "128"
                  },
                  {
                    "size": "64"
                  }
                ]
              }
            }
          },
          "dtype": {
            "type": "DT_FLOAT"
          }
        }
      },
      {
        "name": "model_58/tf.math.add_210/Add/y",
        "op": "Const",
        "attr": {
          "value": {
            "tensor": {
              "dtype": "DT_FLOAT",
              "tensorShape": {
                "dim": [
                  {
                    "size": "64"
                  }
                ]
              }
            }
          },
          "dtype": {
            "type": "DT_FLOAT"
          }
        }
      },
      {
        "name": "model_58/tf.nn.convolution_404/convolution/filter",
        "op": "Const",
        "attr": {
          "value": {
            "tensor": {
              "dtype": "DT_FLOAT",
              "tensorShape": {
                "dim": [
                  {
                    "size": "3"
                  },
                  {
                    "size": "3"
                  },
                  {
                    "size": "64"
                  },
                  {
                    "size": "64"
                  }
                ]
              }
            }
          },
          "dtype": {
            "type": "DT_FLOAT"
          }
        }
      },
      {
        "name": "model_58/tf.math.add_213/Add/y",
        "op": "Const",
        "attr": {
          "value": {
            "tensor": {
              "dtype": "DT_FLOAT",
              "tensorShape": {
                "dim": [
                  {
                    "size": "64"
                  }
                ]
              }
            }
          },
          "dtype": {
            "type": "DT_FLOAT"
          }
        }
      },
      {
        "name": "model_58/tf.nn.convolution_406/convolution/filter",
        "op": "Const",
        "attr": {
          "dtype": {
            "type": "DT_FLOAT"
          },
          "value": {
            "tensor": {
              "dtype": "DT_FLOAT",
              "tensorShape": {
                "dim": [
                  {
                    "size": "3"
                  },
                  {
                    "size": "3"
                  },
                  {
                    "size": "64"
                  },
                  {
                    "size": "64"
                  }
                ]
              }
            }
          }
        }
      },
      {
        "name": "model_58/tf.math.add_215/Add/y",
        "op": "Const",
        "attr": {
          "dtype": {
            "type": "DT_FLOAT"
          },
          "value": {
            "tensor": {
              "dtype": "DT_FLOAT",
              "tensorShape": {
                "dim": [
                  {
                    "size": "64"
                  }
                ]
              }
            }
          }
        }
      },
      {
        "name": "model_58/tf.nn.convolution_407/convolution/filter",
        "op": "Const",
        "attr": {
          "dtype": {
            "type": "DT_FLOAT"
          },
          "value": {
            "tensor": {
              "dtype": "DT_FLOAT",
              "tensorShape": {
                "dim": [
                  {
                    "size": "3"
                  },
                  {
                    "size": "3"
                  },
                  {
                    "size": "64"
                  },
                  {
                    "size": "64"
                  }
                ]
              }
            }
          }
        }
      },
      {
        "name": "model_58/tf.math.add_218/Add/y",
        "op": "Const",
        "attr": {
          "value": {
            "tensor": {
              "dtype": "DT_FLOAT",
              "tensorShape": {
                "dim": [
                  {
                    "size": "64"
                  }
                ]
              }
            }
          },
          "dtype": {
            "type": "DT_FLOAT"
          }
        }
      },
      {
        "name": "model_58/tf.nn.convolution_408/convolution/filter",
        "op": "Const",
        "attr": {
          "dtype": {
            "type": "DT_FLOAT"
          },
          "value": {
            "tensor": {
              "dtype": "DT_FLOAT",
              "tensorShape": {
                "dim": [
                  {
                    "size": "3"
                  },
                  {
                    "size": "3"
                  },
                  {
                    "size": "64"
                  },
                  {
                    "size": "64"
                  }
                ]
              }
            }
          }
        }
      },
      {
        "name": "model_58/tf.math.add_219/Add/y",
        "op": "Const",
        "attr": {
          "value": {
            "tensor": {
              "dtype": "DT_FLOAT",
              "tensorShape": {
                "dim": [
                  {
                    "size": "64"
                  }
                ]
              }
            }
          },
          "dtype": {
            "type": "DT_FLOAT"
          }
        }
      },
      {
        "name": "model_58/tf.strided_slice_38/ones_like/tensor",
        "op": "Const",
        "attr": {
          "value": {
            "tensor": {
              "dtype": "DT_INT64",
              "tensorShape": {
                "dim": [
                  {
                    "size": "4"
                  }
                ]
              }
            }
          },
          "dtype": {
            "type": "DT_INT64"
          }
        }
      },
      {
        "name": "model_58/tf.strided_slice_38/StridedSlice/end",
        "op": "Const",
        "attr": {
          "value": {
            "tensor": {
              "dtype": "DT_INT64",
              "tensorShape": {
                "dim": [
                  {
                    "size": "4"
                  }
                ]
              }
            }
          },
          "dtype": {
            "type": "DT_INT64"
          }
        }
      },
      {
        "name": "model_58/tf.strided_slice_38/ones_like",
        "op": "Const",
        "attr": {
          "dtype": {
            "type": "DT_INT64"
          },
          "value": {
            "tensor": {
              "dtype": "DT_INT64",
              "tensorShape": {
                "dim": [
                  {
                    "size": "4"
                  }
                ]
              }
            }
          }
        }
      },
      {
        "name": "model_58/tf.strided_slice_36/ones_like/tensor",
        "op": "Const",
        "attr": {
          "value": {
            "tensor": {
              "dtype": "DT_INT64",
              "tensorShape": {
                "dim": [
                  {
                    "size": "4"
                  }
                ]
              }
            }
          },
          "dtype": {
            "type": "DT_INT64"
          }
        }
      },
      {
        "name": "model_58/tf.strided_slice_36/StridedSlice/end",
        "op": "Const",
        "attr": {
          "dtype": {
            "type": "DT_INT64"
          },
          "value": {
            "tensor": {
              "dtype": "DT_INT64",
              "tensorShape": {
                "dim": [
                  {
                    "size": "4"
                  }
                ]
              }
            }
          }
        }
      },
      {
        "name": "model_58/tf.strided_slice_36/ones_like",
        "op": "Const",
        "attr": {
          "value": {
            "tensor": {
              "dtype": "DT_INT64",
              "tensorShape": {
                "dim": [
                  {
                    "size": "4"
                  }
                ]
              }
            }
          },
          "dtype": {
            "type": "DT_INT64"
          }
        }
      },
      {
        "name": "model_58/tf.image.resize_3/resize/size",
        "op": "Const",
        "attr": {
          "dtype": {
            "type": "DT_INT32"
          },
          "value": {
            "tensor": {
              "dtype": "DT_INT32",
              "tensorShape": {
                "dim": [
                  {
                    "size": "2"
                  }
                ]
              }
            }
          }
        }
      },
      {
        "name": "model_58/tf.concat_38/concat/axis",
        "op": "Const",
        "attr": {
          "dtype": {
            "type": "DT_INT32"
          },
          "value": {
            "tensor": {
              "dtype": "DT_INT32",
              "tensorShape": {}
            }
          }
        }
      },
      {
        "name": "model_58/tf.nn.convolution_380/convolution/filter",
        "op": "Const",
        "attr": {
          "value": {
            "tensor": {
              "dtype": "DT_FLOAT",
              "tensorShape": {
                "dim": [
                  {
                    "size": "1"
                  },
                  {
                    "size": "1"
                  },
                  {
                    "size": "256"
                  },
                  {
                    "size": "64"
                  }
                ]
              }
            }
          },
          "dtype": {
            "type": "DT_FLOAT"
          }
        }
      },
      {
        "name": "model_58/tf.math.add_181/Add/y",
        "op": "Const",
        "attr": {
          "dtype": {
            "type": "DT_FLOAT"
          },
          "value": {
            "tensor": {
              "dtype": "DT_FLOAT",
              "tensorShape": {
                "dim": [
                  {
                    "size": "64"
                  }
                ]
              }
            }
          }
        }
      },
      {
        "name": "model_58/tf.strided_slice_37/ones_like/tensor",
        "op": "Const",
        "attr": {
          "value": {
            "tensor": {
              "dtype": "DT_INT64",
              "tensorShape": {
                "dim": [
                  {
                    "size": "4"
                  }
                ]
              }
            }
          },
          "dtype": {
            "type": "DT_INT64"
          }
        }
      },
      {
        "name": "model_58/tf.strided_slice_37/StridedSlice/end",
        "op": "Const",
        "attr": {
          "value": {
            "tensor": {
              "dtype": "DT_INT64",
              "tensorShape": {
                "dim": [
                  {
                    "size": "4"
                  }
                ]
              }
            }
          },
          "dtype": {
            "type": "DT_INT64"
          }
        }
      },
      {
        "name": "model_58/tf.strided_slice_37/ones_like",
        "op": "Const",
        "attr": {
          "value": {
            "tensor": {
              "dtype": "DT_INT64",
              "tensorShape": {
                "dim": [
                  {
                    "size": "4"
                  }
                ]
              }
            }
          },
          "dtype": {
            "type": "DT_INT64"
          }
        }
      },
      {
        "name": "model_58/tf.nn.convolution_381/convolution/filter",
        "op": "Const",
        "attr": {
          "dtype": {
            "type": "DT_FLOAT"
          },
          "value": {
            "tensor": {
              "dtype": "DT_FLOAT",
              "tensorShape": {
                "dim": [
                  {
                    "size": "3"
                  },
                  {
                    "size": "3"
                  },
                  {
                    "size": "32"
                  },
                  {
                    "size": "16"
                  }
                ]
              }
            }
          }
        }
      },
      {
        "name": "model_58/tf.math.add_182/Add/y",
        "op": "Const",
        "attr": {
          "value": {
            "tensor": {
              "dtype": "DT_FLOAT",
              "tensorShape": {
                "dim": [
                  {
                    "size": "16"
                  }
                ]
              }
            }
          },
          "dtype": {
            "type": "DT_FLOAT"
          }
        }
      },
      {
        "name": "model_58/tf.nn.convolution_382/convolution/filter",
        "op": "Const",
        "attr": {
          "dtype": {
            "type": "DT_FLOAT"
          },
          "value": {
            "tensor": {
              "dtype": "DT_FLOAT",
              "tensorShape": {
                "dim": [
                  {
                    "size": "3"
                  },
                  {
                    "size": "3"
                  },
                  {
                    "size": "16"
                  },
                  {
                    "size": "32"
                  }
                ]
              }
            }
          }
        }
      },
      {
        "name": "model_58/tf.math.add_183/Add/y",
        "op": "Const",
        "attr": {
          "value": {
            "tensor": {
              "dtype": "DT_FLOAT",
              "tensorShape": {
                "dim": [
                  {
                    "size": "32"
                  }
                ]
              }
            }
          },
          "dtype": {
            "type": "DT_FLOAT"
          }
        }
      },
      {
        "name": "model_58/tf.concat_39/concat/axis",
        "op": "Const",
        "attr": {
          "dtype": {
            "type": "DT_INT32"
          },
          "value": {
            "tensor": {
              "dtype": "DT_INT32",
              "tensorShape": {}
            }
          }
        }
      },
      {
        "name": "model_58/tf.nn.convolution_383/convolution/filter",
        "op": "Const",
        "attr": {
          "dtype": {
            "type": "DT_FLOAT"
          },
          "value": {
            "tensor": {
              "dtype": "DT_FLOAT",
              "tensorShape": {
                "dim": [
                  {
                    "size": "1"
                  },
                  {
                    "size": "1"
                  },
                  {
                    "size": "96"
                  },
                  {
                    "size": "64"
                  }
                ]
              }
            }
          }
        }
      },
      {
        "name": "model_58/tf.math.add_186/Add/y",
        "op": "Const",
        "attr": {
          "dtype": {
            "type": "DT_FLOAT"
          },
          "value": {
            "tensor": {
              "dtype": "DT_FLOAT",
              "tensorShape": {
                "dim": [
                  {
                    "size": "64"
                  }
                ]
              }
            }
          }
        }
      },
      {
        "name": "model_58/tf.compat.v1.pad_12/Pad/paddings",
        "op": "Const",
        "attr": {
          "dtype": {
            "type": "DT_INT32"
          },
          "value": {
            "tensor": {
              "dtype": "DT_INT32",
              "tensorShape": {
                "dim": [
                  {
                    "size": "4"
                  },
                  {
                    "size": "2"
                  }
                ]
              }
            }
          }
        }
      },
      {
        "name": "model_58/tf.nn.convolution_384/convolution/filter",
        "op": "Const",
        "attr": {
          "dtype": {
            "type": "DT_FLOAT"
          },
          "value": {
            "tensor": {
              "dtype": "DT_FLOAT",
              "tensorShape": {
                "dim": [
                  {
                    "size": "3"
                  },
                  {
                    "size": "3"
                  },
                  {
                    "size": "64"
                  },
                  {
                    "size": "64"
                  }
                ]
              }
            }
          }
        }
      },
      {
        "name": "model_58/tf.math.add_187/Add/y",
        "op": "Const",
        "attr": {
          "value": {
            "tensor": {
              "dtype": "DT_FLOAT",
              "tensorShape": {
                "dim": [
                  {
                    "size": "64"
                  }
                ]
              }
            }
          },
          "dtype": {
            "type": "DT_FLOAT"
          }
        }
      },
      {
        "name": "model_58/tf.strided_slice_34/ones_like/tensor",
        "op": "Const",
        "attr": {
          "value": {
            "tensor": {
              "dtype": "DT_INT64",
              "tensorShape": {
                "dim": [
                  {
                    "size": "4"
                  }
                ]
              }
            }
          },
          "dtype": {
            "type": "DT_INT64"
          }
        }
      },
      {
        "name": "model_58/tf.strided_slice_34/StridedSlice/end",
        "op": "Const",
        "attr": {
          "dtype": {
            "type": "DT_INT64"
          },
          "value": {
            "tensor": {
              "dtype": "DT_INT64",
              "tensorShape": {
                "dim": [
                  {
                    "size": "4"
                  }
                ]
              }
            }
          }
        }
      },
      {
        "name": "model_58/tf.strided_slice_34/ones_like",
        "op": "Const",
        "attr": {
          "dtype": {
            "type": "DT_INT64"
          },
          "value": {
            "tensor": {
              "dtype": "DT_INT64",
              "tensorShape": {
                "dim": [
                  {
                    "size": "4"
                  }
                ]
              }
            }
          }
        }
      },
      {
        "name": "model_58/tf.image.resize_2/resize/size",
        "op": "Const",
        "attr": {
          "dtype": {
            "type": "DT_INT32"
          },
          "value": {
            "tensor": {
              "dtype": "DT_INT32",
              "tensorShape": {
                "dim": [
                  {
                    "size": "2"
                  }
                ]
              }
            }
          }
        }
      },
      {
        "name": "model_58/tf.concat_36/concat/axis",
        "op": "Const",
        "attr": {
          "value": {
            "tensor": {
              "dtype": "DT_INT32",
              "tensorShape": {}
            }
          },
          "dtype": {
            "type": "DT_INT32"
          }
        }
      },
      {
        "name": "model_58/tf.nn.convolution_376/convolution/filter",
        "op": "Const",
        "attr": {
          "value": {
            "tensor": {
              "dtype": "DT_FLOAT",
              "tensorShape": {
                "dim": [
                  {
                    "size": "1"
                  },
                  {
                    "size": "1"
                  },
                  {
                    "size": "384"
                  },
                  {
                    "size": "128"
                  }
                ]
              }
            }
          },
          "dtype": {
            "type": "DT_FLOAT"
          }
        }
      },
      {
        "name": "model_58/tf.math.add_175/Add/y",
        "op": "Const",
        "attr": {
          "dtype": {
            "type": "DT_FLOAT"
          },
          "value": {
            "tensor": {
              "dtype": "DT_FLOAT",
              "tensorShape": {
                "dim": [
                  {
                    "size": "128"
                  }
                ]
              }
            }
          }
        }
      },
      {
        "name": "model_58/tf.strided_slice_35/ones_like/tensor",
        "op": "Const",
        "attr": {
          "value": {
            "tensor": {
              "dtype": "DT_INT64",
              "tensorShape": {
                "dim": [
                  {
                    "size": "4"
                  }
                ]
              }
            }
          },
          "dtype": {
            "type": "DT_INT64"
          }
        }
      },
      {
        "name": "model_58/tf.strided_slice_35/StridedSlice/end",
        "op": "Const",
        "attr": {
          "dtype": {
            "type": "DT_INT64"
          },
          "value": {
            "tensor": {
              "dtype": "DT_INT64",
              "tensorShape": {
                "dim": [
                  {
                    "size": "4"
                  }
                ]
              }
            }
          }
        }
      },
      {
        "name": "model_58/tf.strided_slice_35/ones_like",
        "op": "Const",
        "attr": {
          "value": {
            "tensor": {
              "dtype": "DT_INT64",
              "tensorShape": {
                "dim": [
                  {
                    "size": "4"
                  }
                ]
              }
            }
          },
          "dtype": {
            "type": "DT_INT64"
          }
        }
      },
      {
        "name": "model_58/tf.nn.convolution_377/convolution/filter",
        "op": "Const",
        "attr": {
          "value": {
            "tensor": {
              "dtype": "DT_FLOAT",
              "tensorShape": {
                "dim": [
                  {
                    "size": "3"
                  },
                  {
                    "size": "3"
                  },
                  {
                    "size": "64"
                  },
                  {
                    "size": "32"
                  }
                ]
              }
            }
          },
          "dtype": {
            "type": "DT_FLOAT"
          }
        }
      },
      {
        "name": "model_58/tf.math.add_176/Add/y",
        "op": "Const",
        "attr": {
          "value": {
            "tensor": {
              "dtype": "DT_FLOAT",
              "tensorShape": {
                "dim": [
                  {
                    "size": "32"
                  }
                ]
              }
            }
          },
          "dtype": {
            "type": "DT_FLOAT"
          }
        }
      },
      {
        "name": "model_58/tf.nn.convolution_378/convolution/filter",
        "op": "Const",
        "attr": {
          "dtype": {
            "type": "DT_FLOAT"
          },
          "value": {
            "tensor": {
              "dtype": "DT_FLOAT",
              "tensorShape": {
                "dim": [
                  {
                    "size": "3"
                  },
                  {
                    "size": "3"
                  },
                  {
                    "size": "32"
                  },
                  {
                    "size": "64"
                  }
                ]
              }
            }
          }
        }
      },
      {
        "name": "model_58/tf.math.add_177/Add/y",
        "op": "Const",
        "attr": {
          "dtype": {
            "type": "DT_FLOAT"
          },
          "value": {
            "tensor": {
              "dtype": "DT_FLOAT",
              "tensorShape": {
                "dim": [
                  {
                    "size": "64"
                  }
                ]
              }
            }
          }
        }
      },
      {
        "name": "model_58/tf.concat_37/concat/axis",
        "op": "Const",
        "attr": {
          "value": {
            "tensor": {
              "dtype": "DT_INT32",
              "tensorShape": {}
            }
          },
          "dtype": {
            "type": "DT_INT32"
          }
        }
      },
      {
        "name": "model_58/tf.nn.convolution_379/convolution/filter",
        "op": "Const",
        "attr": {
          "dtype": {
            "type": "DT_FLOAT"
          },
          "value": {
            "tensor": {
              "dtype": "DT_FLOAT",
              "tensorShape": {
                "dim": [
                  {
                    "size": "1"
                  },
                  {
                    "size": "1"
                  },
                  {
                    "size": "192"
                  },
                  {
                    "size": "128"
                  }
                ]
              }
            }
          }
        }
      },
      {
        "name": "model_58/tf.math.add_180/Add/y",
        "op": "Const",
        "attr": {
          "dtype": {
            "type": "DT_FLOAT"
          },
          "value": {
            "tensor": {
              "dtype": "DT_FLOAT",
              "tensorShape": {
                "dim": [
                  {
                    "size": "128"
                  }
                ]
              }
            }
          }
        }
      },
      {
        "name": "model_58/tf.concat_40/concat/axis",
        "op": "Const",
        "attr": {
          "value": {
            "tensor": {
              "dtype": "DT_INT32",
              "tensorShape": {}
            }
          },
          "dtype": {
            "type": "DT_INT32"
          }
        }
      },
      {
        "name": "model_58/tf.nn.convolution_388/convolution/filter",
        "op": "Const",
        "attr": {
          "value": {
            "tensor": {
              "dtype": "DT_FLOAT",
              "tensorShape": {
                "dim": [
                  {
                    "size": "1"
                  },
                  {
                    "size": "1"
                  },
                  {
                    "size": "192"
                  },
                  {
                    "size": "128"
                  }
                ]
              }
            }
          },
          "dtype": {
            "type": "DT_FLOAT"
          }
        }
      },
      {
        "name": "model_58/tf.math.add_192/Add/y",
        "op": "Const",
        "attr": {
          "dtype": {
            "type": "DT_FLOAT"
          },
          "value": {
            "tensor": {
              "dtype": "DT_FLOAT",
              "tensorShape": {
                "dim": [
                  {
                    "size": "128"
                  }
                ]
              }
            }
          }
        }
      },
      {
        "name": "model_58/tf.strided_slice_39/ones_like/tensor",
        "op": "Const",
        "attr": {
          "dtype": {
            "type": "DT_INT64"
          },
          "value": {
            "tensor": {
              "dtype": "DT_INT64",
              "tensorShape": {
                "dim": [
                  {
                    "size": "4"
                  }
                ]
              }
            }
          }
        }
      },
      {
        "name": "model_58/tf.strided_slice_39/StridedSlice/end",
        "op": "Const",
        "attr": {
          "value": {
            "tensor": {
              "dtype": "DT_INT64",
              "tensorShape": {
                "dim": [
                  {
                    "size": "4"
                  }
                ]
              }
            }
          },
          "dtype": {
            "type": "DT_INT64"
          }
        }
      },
      {
        "name": "model_58/tf.strided_slice_39/ones_like",
        "op": "Const",
        "attr": {
          "value": {
            "tensor": {
              "dtype": "DT_INT64",
              "tensorShape": {
                "dim": [
                  {
                    "size": "4"
                  }
                ]
              }
            }
          },
          "dtype": {
            "type": "DT_INT64"
          }
        }
      },
      {
        "name": "model_58/tf.nn.convolution_390/convolution/filter",
        "op": "Const",
        "attr": {
          "value": {
            "tensor": {
              "dtype": "DT_FLOAT",
              "tensorShape": {
                "dim": [
                  {
                    "size": "3"
                  },
                  {
                    "size": "3"
                  },
                  {
                    "size": "64"
                  },
                  {
                    "size": "32"
                  }
                ]
              }
            }
          },
          "dtype": {
            "type": "DT_FLOAT"
          }
        }
      },
      {
        "name": "model_58/tf.math.add_195/Add/y",
        "op": "Const",
        "attr": {
          "value": {
            "tensor": {
              "dtype": "DT_FLOAT",
              "tensorShape": {
                "dim": [
                  {
                    "size": "32"
                  }
                ]
              }
            }
          },
          "dtype": {
            "type": "DT_FLOAT"
          }
        }
      },
      {
        "name": "model_58/tf.nn.convolution_392/convolution/filter",
        "op": "Const",
        "attr": {
          "dtype": {
            "type": "DT_FLOAT"
          },
          "value": {
            "tensor": {
              "dtype": "DT_FLOAT",
              "tensorShape": {
                "dim": [
                  {
                    "size": "3"
                  },
                  {
                    "size": "3"
                  },
                  {
                    "size": "32"
                  },
                  {
                    "size": "64"
                  }
                ]
              }
            }
          }
        }
      },
      {
        "name": "model_58/tf.math.add_197/Add/y",
        "op": "Const",
        "attr": {
          "dtype": {
            "type": "DT_FLOAT"
          },
          "value": {
            "tensor": {
              "dtype": "DT_FLOAT",
              "tensorShape": {
                "dim": [
                  {
                    "size": "64"
                  }
                ]
              }
            }
          }
        }
      },
      {
        "name": "model_58/tf.concat_42/concat/axis",
        "op": "Const",
        "attr": {
          "dtype": {
            "type": "DT_INT32"
          },
          "value": {
            "tensor": {
              "dtype": "DT_INT32",
              "tensorShape": {}
            }
          }
        }
      },
      {
        "name": "model_58/tf.nn.convolution_394/convolution/filter",
        "op": "Const",
        "attr": {
          "value": {
            "tensor": {
              "dtype": "DT_FLOAT",
              "tensorShape": {
                "dim": [
                  {
                    "size": "1"
                  },
                  {
                    "size": "1"
                  },
                  {
                    "size": "192"
                  },
                  {
                    "size": "128"
                  }
                ]
              }
            }
          },
          "dtype": {
            "type": "DT_FLOAT"
          }
        }
      },
      {
        "name": "model_58/tf.math.add_201/Add/y",
        "op": "Const",
        "attr": {
          "value": {
            "tensor": {
              "dtype": "DT_FLOAT",
              "tensorShape": {
                "dim": [
                  {
                    "size": "128"
                  }
                ]
              }
            }
          },
          "dtype": {
            "type": "DT_FLOAT"
          }
        }
      },
      {
        "name": "model_58/tf.compat.v1.pad_13/Pad/paddings",
        "op": "Const",
        "attr": {
          "dtype": {
            "type": "DT_INT32"
          },
          "value": {
            "tensor": {
              "dtype": "DT_INT32",
              "tensorShape": {
                "dim": [
                  {
                    "size": "4"
                  },
                  {
                    "size": "2"
                  }
                ]
              }
            }
          }
        }
      },
      {
        "name": "model_58/tf.nn.convolution_395/convolution/filter",
        "op": "Const",
        "attr": {
          "dtype": {
            "type": "DT_FLOAT"
          },
          "value": {
            "tensor": {
              "dtype": "DT_FLOAT",
              "tensorShape": {
                "dim": [
                  {
                    "size": "3"
                  },
                  {
                    "size": "3"
                  },
                  {
                    "size": "128"
                  },
                  {
                    "size": "128"
                  }
                ]
              }
            }
          }
        }
      },
      {
        "name": "model_58/tf.math.add_202/Add/y",
        "op": "Const",
        "attr": {
          "dtype": {
            "type": "DT_FLOAT"
          },
          "value": {
            "tensor": {
              "dtype": "DT_FLOAT",
              "tensorShape": {
                "dim": [
                  {
                    "size": "128"
                  }
                ]
              }
            }
          }
        }
      },
      {
        "name": "model_58/tf.math.add_171/Add/y",
        "op": "Const",
        "attr": {
          "value": {
            "tensor": {
              "dtype": "DT_FLOAT",
              "tensorShape": {
                "dim": [
                  {
                    "size": "128"
                  }
                ]
              }
            }
          },
          "dtype": {
            "type": "DT_FLOAT"
          }
        }
      },
      {
        "name": "model_58/tf.math.add_167/Add/y",
        "op": "Const",
        "attr": {
          "dtype": {
            "type": "DT_FLOAT"
          },
          "value": {
            "tensor": {
              "dtype": "DT_FLOAT",
              "tensorShape": {
                "dim": [
                  {
                    "size": "128"
                  }
                ]
              }
            }
          }
        }
      },
      {
        "name": "model_58/tf.math.add_164/Add/y",
        "op": "Const",
        "attr": {
          "dtype": {
            "type": "DT_FLOAT"
          },
          "value": {
            "tensor": {
              "dtype": "DT_FLOAT",
              "tensorShape": {
                "dim": [
                  {
                    "size": "128"
                  }
                ]
              }
            }
          }
        }
      },
      {
        "name": "model_58/tf.strided_slice_31/StridedSlice/begin",
        "op": "Const",
        "attr": {
          "dtype": {
            "type": "DT_INT32"
          },
          "value": {
            "tensor": {
              "dtype": "DT_INT32",
              "tensorShape": {
                "dim": [
                  {
                    "size": "4"
                  }
                ]
              }
            }
          }
        }
      },
      {
        "name": "model_58/tf.strided_slice_31/StridedSlice/end",
        "op": "Const",
        "attr": {
          "dtype": {
            "type": "DT_INT32"
          },
          "value": {
            "tensor": {
              "dtype": "DT_INT32",
              "tensorShape": {
                "dim": [
                  {
                    "size": "4"
                  }
                ]
              }
            }
          }
        }
      },
      {
        "name": "model_58/tf.strided_slice_31/ones_like",
        "op": "Const",
        "attr": {
          "value": {
            "tensor": {
              "dtype": "DT_INT32",
              "tensorShape": {
                "dim": [
                  {
                    "size": "4"
                  }
                ]
              }
            }
          },
          "dtype": {
            "type": "DT_INT32"
          }
        }
      },
      {
        "name": "model_58/tf.strided_slice_32/StridedSlice/begin",
        "op": "Const",
        "attr": {
          "value": {
            "tensor": {
              "dtype": "DT_INT32",
              "tensorShape": {
                "dim": [
                  {
                    "size": "4"
                  }
                ]
              }
            }
          },
          "dtype": {
            "type": "DT_INT32"
          }
        }
      },
      {
        "name": "model_58/tf.strided_slice_32/StridedSlice/end",
        "op": "Const",
        "attr": {
          "value": {
            "tensor": {
              "dtype": "DT_INT32",
              "tensorShape": {
                "dim": [
                  {
                    "size": "4"
                  }
                ]
              }
            }
          },
          "dtype": {
            "type": "DT_INT32"
          }
        }
      },
      {
        "name": "model_58/tf.strided_slice_32/ones_like",
        "op": "Const",
        "attr": {
          "dtype": {
            "type": "DT_INT32"
          },
          "value": {
            "tensor": {
              "dtype": "DT_INT32",
              "tensorShape": {
                "dim": [
                  {
                    "size": "4"
                  }
                ]
              }
            }
          }
        }
      },
      {
        "name": "model_58/tf.math.multiply_500/Mul/y",
        "op": "Const",
        "attr": {
          "value": {
            "tensor": {
              "dtype": "DT_FLOAT",
              "tensorShape": {
                "dim": [
                  {
                    "size": "1"
                  },
                  {
                    "size": "1"
                  },
                  {
                    "size": "1"
                  },
                  {
                    "size": "1"
                  }
                ]
              }
            }
          },
          "dtype": {
            "type": "DT_FLOAT"
          }
        }
      },
      {
        "name": "model_58/tf.reshape_32/Reshape/shape",
        "op": "Const",
        "attr": {
          "value": {
            "tensor": {
              "dtype": "DT_INT32",
              "tensorShape": {
                "dim": [
                  {
                    "size": "4"
                  }
                ]
              }
            }
          },
          "dtype": {
            "type": "DT_INT32"
          }
        }
      },
      {
        "name": "model_58/tf.compat.v1.transpose_71/transpose/perm",
        "op": "Const",
        "attr": {
          "dtype": {
            "type": "DT_INT32"
          },
          "value": {
            "tensor": {
              "dtype": "DT_INT32",
              "tensorShape": {
                "dim": [
                  {
                    "size": "4"
                  }
                ]
              }
            }
          }
        }
      },
      {
        "name": "model_58/tf.nn.convolution_244/convolution/filter",
        "op": "Const",
        "attr": {
          "value": {
            "tensor": {
              "dtype": "DT_FLOAT",
              "tensorShape": {
                "dim": [
                  {
                    "size": "3"
                  },
                  {
                    "size": "3"
                  },
                  {
                    "size": "1"
                  },
                  {
                    "size": "1"
                  }
                ]
              }
            }
          },
          "dtype": {
            "type": "DT_FLOAT"
          }
        }
      },
      {
        "name": "model_58/tf.nn.convolution_245/convolution/filter",
        "op": "Const",
        "attr": {
          "value": {
            "tensor": {
              "dtype": "DT_FLOAT",
              "tensorShape": {
                "dim": [
                  {
                    "size": "3"
                  },
                  {
                    "size": "3"
                  },
                  {
                    "size": "1"
                  },
                  {
                    "size": "1"
                  }
                ]
              }
            }
          },
          "dtype": {
            "type": "DT_FLOAT"
          }
        }
      },
      {
        "name": "model_58/tf.nn.convolution_246/convolution/filter",
        "op": "Const",
        "attr": {
          "dtype": {
            "type": "DT_FLOAT"
          },
          "value": {
            "tensor": {
              "dtype": "DT_FLOAT",
              "tensorShape": {
                "dim": [
                  {
                    "size": "3"
                  },
                  {
                    "size": "3"
                  },
                  {
                    "size": "1"
                  },
                  {
                    "size": "1"
                  }
                ]
              }
            }
          }
        }
      },
      {
        "name": "model_58/tf.nn.convolution_247/convolution/filter",
        "op": "Const",
        "attr": {
          "dtype": {
            "type": "DT_FLOAT"
          },
          "value": {
            "tensor": {
              "dtype": "DT_FLOAT",
              "tensorShape": {
                "dim": [
                  {
                    "size": "3"
                  },
                  {
                    "size": "3"
                  },
                  {
                    "size": "1"
                  },
                  {
                    "size": "1"
                  }
                ]
              }
            }
          }
        }
      },
      {
        "name": "model_58/tf.nn.convolution_248/convolution/filter",
        "op": "Const",
        "attr": {
          "dtype": {
            "type": "DT_FLOAT"
          },
          "value": {
            "tensor": {
              "dtype": "DT_FLOAT",
              "tensorShape": {
                "dim": [
                  {
                    "size": "3"
                  },
                  {
                    "size": "3"
                  },
                  {
                    "size": "1"
                  },
                  {
                    "size": "1"
                  }
                ]
              }
            }
          }
        }
      },
      {
        "name": "model_58/tf.nn.convolution_249/convolution/filter",
        "op": "Const",
        "attr": {
          "dtype": {
            "type": "DT_FLOAT"
          },
          "value": {
            "tensor": {
              "dtype": "DT_FLOAT",
              "tensorShape": {
                "dim": [
                  {
                    "size": "3"
                  },
                  {
                    "size": "3"
                  },
                  {
                    "size": "1"
                  },
                  {
                    "size": "1"
                  }
                ]
              }
            }
          }
        }
      },
      {
        "name": "model_58/tf.nn.convolution_250/convolution/filter",
        "op": "Const",
        "attr": {
          "value": {
            "tensor": {
              "dtype": "DT_FLOAT",
              "tensorShape": {
                "dim": [
                  {
                    "size": "3"
                  },
                  {
                    "size": "3"
                  },
                  {
                    "size": "1"
                  },
                  {
                    "size": "1"
                  }
                ]
              }
            }
          },
          "dtype": {
            "type": "DT_FLOAT"
          }
        }
      },
      {
        "name": "model_58/tf.nn.convolution_251/convolution/filter",
        "op": "Const",
        "attr": {
          "dtype": {
            "type": "DT_FLOAT"
          },
          "value": {
            "tensor": {
              "dtype": "DT_FLOAT",
              "tensorShape": {
                "dim": [
                  {
                    "size": "3"
                  },
                  {
                    "size": "3"
                  },
                  {
                    "size": "1"
                  },
                  {
                    "size": "1"
                  }
                ]
              }
            }
          }
        }
      },
      {
        "name": "model_58/tf.nn.convolution_252/convolution/filter",
        "op": "Const",
        "attr": {
          "value": {
            "tensor": {
              "dtype": "DT_FLOAT",
              "tensorShape": {
                "dim": [
                  {
                    "size": "3"
                  },
                  {
                    "size": "3"
                  },
                  {
                    "size": "1"
                  },
                  {
                    "size": "1"
                  }
                ]
              }
            }
          },
          "dtype": {
            "type": "DT_FLOAT"
          }
        }
      },
      {
        "name": "model_58/tf.nn.convolution_253/convolution/filter",
        "op": "Const",
        "attr": {
          "dtype": {
            "type": "DT_FLOAT"
          },
          "value": {
            "tensor": {
              "dtype": "DT_FLOAT",
              "tensorShape": {
                "dim": [
                  {
                    "size": "3"
                  },
                  {
                    "size": "3"
                  },
                  {
                    "size": "1"
                  },
                  {
                    "size": "1"
                  }
                ]
              }
            }
          }
        }
      },
      {
        "name": "model_58/tf.nn.convolution_254/convolution/filter",
        "op": "Const",
        "attr": {
          "dtype": {
            "type": "DT_FLOAT"
          },
          "value": {
            "tensor": {
              "dtype": "DT_FLOAT",
              "tensorShape": {
                "dim": [
                  {
                    "size": "3"
                  },
                  {
                    "size": "3"
                  },
                  {
                    "size": "1"
                  },
                  {
                    "size": "1"
                  }
                ]
              }
            }
          }
        }
      },
      {
        "name": "model_58/tf.nn.convolution_255/convolution/filter",
        "op": "Const",
        "attr": {
          "value": {
            "tensor": {
              "dtype": "DT_FLOAT",
              "tensorShape": {
                "dim": [
                  {
                    "size": "3"
                  },
                  {
                    "size": "3"
                  },
                  {
                    "size": "1"
                  },
                  {
                    "size": "1"
                  }
                ]
              }
            }
          },
          "dtype": {
            "type": "DT_FLOAT"
          }
        }
      },
      {
        "name": "model_58/tf.nn.convolution_256/convolution/filter",
        "op": "Const",
        "attr": {
          "dtype": {
            "type": "DT_FLOAT"
          },
          "value": {
            "tensor": {
              "dtype": "DT_FLOAT",
              "tensorShape": {
                "dim": [
                  {
                    "size": "3"
                  },
                  {
                    "size": "3"
                  },
                  {
                    "size": "1"
                  },
                  {
                    "size": "1"
                  }
                ]
              }
            }
          }
        }
      },
      {
        "name": "model_58/tf.nn.convolution_257/convolution/filter",
        "op": "Const",
        "attr": {
          "value": {
            "tensor": {
              "dtype": "DT_FLOAT",
              "tensorShape": {
                "dim": [
                  {
                    "size": "3"
                  },
                  {
                    "size": "3"
                  },
                  {
                    "size": "1"
                  },
                  {
                    "size": "1"
                  }
                ]
              }
            }
          },
          "dtype": {
            "type": "DT_FLOAT"
          }
        }
      },
      {
        "name": "model_58/tf.nn.convolution_258/convolution/filter",
        "op": "Const",
        "attr": {
          "value": {
            "tensor": {
              "dtype": "DT_FLOAT",
              "tensorShape": {
                "dim": [
                  {
                    "size": "3"
                  },
                  {
                    "size": "3"
                  },
                  {
                    "size": "1"
                  },
                  {
                    "size": "1"
                  }
                ]
              }
            }
          },
          "dtype": {
            "type": "DT_FLOAT"
          }
        }
      },
      {
        "name": "model_58/tf.nn.convolution_259/convolution/filter",
        "op": "Const",
        "attr": {
          "dtype": {
            "type": "DT_FLOAT"
          },
          "value": {
            "tensor": {
              "dtype": "DT_FLOAT",
              "tensorShape": {
                "dim": [
                  {
                    "size": "3"
                  },
                  {
                    "size": "3"
                  },
                  {
                    "size": "1"
                  },
                  {
                    "size": "1"
                  }
                ]
              }
            }
          }
        }
      },
      {
        "name": "model_58/tf.nn.convolution_260/convolution/filter",
        "op": "Const",
        "attr": {
          "dtype": {
            "type": "DT_FLOAT"
          },
          "value": {
            "tensor": {
              "dtype": "DT_FLOAT",
              "tensorShape": {
                "dim": [
                  {
                    "size": "3"
                  },
                  {
                    "size": "3"
                  },
                  {
                    "size": "1"
                  },
                  {
                    "size": "1"
                  }
                ]
              }
            }
          }
        }
      },
      {
        "name": "model_58/tf.nn.convolution_261/convolution/filter",
        "op": "Const",
        "attr": {
          "dtype": {
            "type": "DT_FLOAT"
          },
          "value": {
            "tensor": {
              "dtype": "DT_FLOAT",
              "tensorShape": {
                "dim": [
                  {
                    "size": "3"
                  },
                  {
                    "size": "3"
                  },
                  {
                    "size": "1"
                  },
                  {
                    "size": "1"
                  }
                ]
              }
            }
          }
        }
      },
      {
        "name": "model_58/tf.nn.convolution_262/convolution/filter",
        "op": "Const",
        "attr": {
          "dtype": {
            "type": "DT_FLOAT"
          },
          "value": {
            "tensor": {
              "dtype": "DT_FLOAT",
              "tensorShape": {
                "dim": [
                  {
                    "size": "3"
                  },
                  {
                    "size": "3"
                  },
                  {
                    "size": "1"
                  },
                  {
                    "size": "1"
                  }
                ]
              }
            }
          }
        }
      },
      {
        "name": "model_58/tf.nn.convolution_263/convolution/filter",
        "op": "Const",
        "attr": {
          "value": {
            "tensor": {
              "dtype": "DT_FLOAT",
              "tensorShape": {
                "dim": [
                  {
                    "size": "3"
                  },
                  {
                    "size": "3"
                  },
                  {
                    "size": "1"
                  },
                  {
                    "size": "1"
                  }
                ]
              }
            }
          },
          "dtype": {
            "type": "DT_FLOAT"
          }
        }
      },
      {
        "name": "model_58/tf.nn.convolution_264/convolution/filter",
        "op": "Const",
        "attr": {
          "value": {
            "tensor": {
              "dtype": "DT_FLOAT",
              "tensorShape": {
                "dim": [
                  {
                    "size": "3"
                  },
                  {
                    "size": "3"
                  },
                  {
                    "size": "1"
                  },
                  {
                    "size": "1"
                  }
                ]
              }
            }
          },
          "dtype": {
            "type": "DT_FLOAT"
          }
        }
      },
      {
        "name": "model_58/tf.nn.convolution_265/convolution/filter",
        "op": "Const",
        "attr": {
          "dtype": {
            "type": "DT_FLOAT"
          },
          "value": {
            "tensor": {
              "dtype": "DT_FLOAT",
              "tensorShape": {
                "dim": [
                  {
                    "size": "3"
                  },
                  {
                    "size": "3"
                  },
                  {
                    "size": "1"
                  },
                  {
                    "size": "1"
                  }
                ]
              }
            }
          }
        }
      },
      {
        "name": "model_58/tf.nn.convolution_266/convolution/filter",
        "op": "Const",
        "attr": {
          "dtype": {
            "type": "DT_FLOAT"
          },
          "value": {
            "tensor": {
              "dtype": "DT_FLOAT",
              "tensorShape": {
                "dim": [
                  {
                    "size": "3"
                  },
                  {
                    "size": "3"
                  },
                  {
                    "size": "1"
                  },
                  {
                    "size": "1"
                  }
                ]
              }
            }
          }
        }
      },
      {
        "name": "model_58/tf.nn.convolution_267/convolution/filter",
        "op": "Const",
        "attr": {
          "value": {
            "tensor": {
              "dtype": "DT_FLOAT",
              "tensorShape": {
                "dim": [
                  {
                    "size": "3"
                  },
                  {
                    "size": "3"
                  },
                  {
                    "size": "1"
                  },
                  {
                    "size": "1"
                  }
                ]
              }
            }
          },
          "dtype": {
            "type": "DT_FLOAT"
          }
        }
      },
      {
        "name": "model_58/tf.nn.convolution_268/convolution/filter",
        "op": "Const",
        "attr": {
          "value": {
            "tensor": {
              "dtype": "DT_FLOAT",
              "tensorShape": {
                "dim": [
                  {
                    "size": "3"
                  },
                  {
                    "size": "3"
                  },
                  {
                    "size": "1"
                  },
                  {
                    "size": "1"
                  }
                ]
              }
            }
          },
          "dtype": {
            "type": "DT_FLOAT"
          }
        }
      },
      {
        "name": "model_58/tf.nn.convolution_269/convolution/filter",
        "op": "Const",
        "attr": {
          "value": {
            "tensor": {
              "dtype": "DT_FLOAT",
              "tensorShape": {
                "dim": [
                  {
                    "size": "3"
                  },
                  {
                    "size": "3"
                  },
                  {
                    "size": "1"
                  },
                  {
                    "size": "1"
                  }
                ]
              }
            }
          },
          "dtype": {
            "type": "DT_FLOAT"
          }
        }
      },
      {
        "name": "model_58/tf.nn.convolution_270/convolution/filter",
        "op": "Const",
        "attr": {
          "value": {
            "tensor": {
              "dtype": "DT_FLOAT",
              "tensorShape": {
                "dim": [
                  {
                    "size": "3"
                  },
                  {
                    "size": "3"
                  },
                  {
                    "size": "1"
                  },
                  {
                    "size": "1"
                  }
                ]
              }
            }
          },
          "dtype": {
            "type": "DT_FLOAT"
          }
        }
      },
      {
        "name": "model_58/tf.nn.convolution_271/convolution/filter",
        "op": "Const",
        "attr": {
          "dtype": {
            "type": "DT_FLOAT"
          },
          "value": {
            "tensor": {
              "dtype": "DT_FLOAT",
              "tensorShape": {
                "dim": [
                  {
                    "size": "3"
                  },
                  {
                    "size": "3"
                  },
                  {
                    "size": "1"
                  },
                  {
                    "size": "1"
                  }
                ]
              }
            }
          }
        }
      },
      {
        "name": "model_58/tf.nn.convolution_272/convolution/filter",
        "op": "Const",
        "attr": {
          "dtype": {
            "type": "DT_FLOAT"
          },
          "value": {
            "tensor": {
              "dtype": "DT_FLOAT",
              "tensorShape": {
                "dim": [
                  {
                    "size": "3"
                  },
                  {
                    "size": "3"
                  },
                  {
                    "size": "1"
                  },
                  {
                    "size": "1"
                  }
                ]
              }
            }
          }
        }
      },
      {
        "name": "model_58/tf.nn.convolution_273/convolution/filter",
        "op": "Const",
        "attr": {
          "value": {
            "tensor": {
              "dtype": "DT_FLOAT",
              "tensorShape": {
                "dim": [
                  {
                    "size": "3"
                  },
                  {
                    "size": "3"
                  },
                  {
                    "size": "1"
                  },
                  {
                    "size": "1"
                  }
                ]
              }
            }
          },
          "dtype": {
            "type": "DT_FLOAT"
          }
        }
      },
      {
        "name": "model_58/tf.nn.convolution_274/convolution/filter",
        "op": "Const",
        "attr": {
          "dtype": {
            "type": "DT_FLOAT"
          },
          "value": {
            "tensor": {
              "dtype": "DT_FLOAT",
              "tensorShape": {
                "dim": [
                  {
                    "size": "3"
                  },
                  {
                    "size": "3"
                  },
                  {
                    "size": "1"
                  },
                  {
                    "size": "1"
                  }
                ]
              }
            }
          }
        }
      },
      {
        "name": "model_58/tf.nn.convolution_275/convolution/filter",
        "op": "Const",
        "attr": {
          "value": {
            "tensor": {
              "dtype": "DT_FLOAT",
              "tensorShape": {
                "dim": [
                  {
                    "size": "3"
                  },
                  {
                    "size": "3"
                  },
                  {
                    "size": "1"
                  },
                  {
                    "size": "1"
                  }
                ]
              }
            }
          },
          "dtype": {
            "type": "DT_FLOAT"
          }
        }
      },
      {
        "name": "model_58/tf.nn.convolution_276/convolution/filter",
        "op": "Const",
        "attr": {
          "value": {
            "tensor": {
              "dtype": "DT_FLOAT",
              "tensorShape": {
                "dim": [
                  {
                    "size": "3"
                  },
                  {
                    "size": "3"
                  },
                  {
                    "size": "1"
                  },
                  {
                    "size": "1"
                  }
                ]
              }
            }
          },
          "dtype": {
            "type": "DT_FLOAT"
          }
        }
      },
      {
        "name": "model_58/tf.nn.convolution_277/convolution/filter",
        "op": "Const",
        "attr": {
          "value": {
            "tensor": {
              "dtype": "DT_FLOAT",
              "tensorShape": {
                "dim": [
                  {
                    "size": "3"
                  },
                  {
                    "size": "3"
                  },
                  {
                    "size": "1"
                  },
                  {
                    "size": "1"
                  }
                ]
              }
            }
          },
          "dtype": {
            "type": "DT_FLOAT"
          }
        }
      },
      {
        "name": "model_58/tf.nn.convolution_278/convolution/filter",
        "op": "Const",
        "attr": {
          "dtype": {
            "type": "DT_FLOAT"
          },
          "value": {
            "tensor": {
              "dtype": "DT_FLOAT",
              "tensorShape": {
                "dim": [
                  {
                    "size": "3"
                  },
                  {
                    "size": "3"
                  },
                  {
                    "size": "1"
                  },
                  {
                    "size": "1"
                  }
                ]
              }
            }
          }
        }
      },
      {
        "name": "model_58/tf.nn.convolution_279/convolution/filter",
        "op": "Const",
        "attr": {
          "dtype": {
            "type": "DT_FLOAT"
          },
          "value": {
            "tensor": {
              "dtype": "DT_FLOAT",
              "tensorShape": {
                "dim": [
                  {
                    "size": "3"
                  },
                  {
                    "size": "3"
                  },
                  {
                    "size": "1"
                  },
                  {
                    "size": "1"
                  }
                ]
              }
            }
          }
        }
      },
      {
        "name": "model_58/tf.nn.convolution_280/convolution/filter",
        "op": "Const",
        "attr": {
          "value": {
            "tensor": {
              "dtype": "DT_FLOAT",
              "tensorShape": {
                "dim": [
                  {
                    "size": "3"
                  },
                  {
                    "size": "3"
                  },
                  {
                    "size": "1"
                  },
                  {
                    "size": "1"
                  }
                ]
              }
            }
          },
          "dtype": {
            "type": "DT_FLOAT"
          }
        }
      },
      {
        "name": "model_58/tf.nn.convolution_281/convolution/filter",
        "op": "Const",
        "attr": {
          "dtype": {
            "type": "DT_FLOAT"
          },
          "value": {
            "tensor": {
              "dtype": "DT_FLOAT",
              "tensorShape": {
                "dim": [
                  {
                    "size": "3"
                  },
                  {
                    "size": "3"
                  },
                  {
                    "size": "1"
                  },
                  {
                    "size": "1"
                  }
                ]
              }
            }
          }
        }
      },
      {
        "name": "model_58/tf.nn.convolution_282/convolution/filter",
        "op": "Const",
        "attr": {
          "value": {
            "tensor": {
              "dtype": "DT_FLOAT",
              "tensorShape": {
                "dim": [
                  {
                    "size": "3"
                  },
                  {
                    "size": "3"
                  },
                  {
                    "size": "1"
                  },
                  {
                    "size": "1"
                  }
                ]
              }
            }
          },
          "dtype": {
            "type": "DT_FLOAT"
          }
        }
      },
      {
        "name": "model_58/tf.nn.convolution_283/convolution/filter",
        "op": "Const",
        "attr": {
          "value": {
            "tensor": {
              "dtype": "DT_FLOAT",
              "tensorShape": {
                "dim": [
                  {
                    "size": "3"
                  },
                  {
                    "size": "3"
                  },
                  {
                    "size": "1"
                  },
                  {
                    "size": "1"
                  }
                ]
              }
            }
          },
          "dtype": {
            "type": "DT_FLOAT"
          }
        }
      },
      {
        "name": "model_58/tf.nn.convolution_284/convolution/filter",
        "op": "Const",
        "attr": {
          "dtype": {
            "type": "DT_FLOAT"
          },
          "value": {
            "tensor": {
              "dtype": "DT_FLOAT",
              "tensorShape": {
                "dim": [
                  {
                    "size": "3"
                  },
                  {
                    "size": "3"
                  },
                  {
                    "size": "1"
                  },
                  {
                    "size": "1"
                  }
                ]
              }
            }
          }
        }
      },
      {
        "name": "model_58/tf.nn.convolution_285/convolution/filter",
        "op": "Const",
        "attr": {
          "dtype": {
            "type": "DT_FLOAT"
          },
          "value": {
            "tensor": {
              "dtype": "DT_FLOAT",
              "tensorShape": {
                "dim": [
                  {
                    "size": "3"
                  },
                  {
                    "size": "3"
                  },
                  {
                    "size": "1"
                  },
                  {
                    "size": "1"
                  }
                ]
              }
            }
          }
        }
      },
      {
        "name": "model_58/tf.nn.convolution_286/convolution/filter",
        "op": "Const",
        "attr": {
          "dtype": {
            "type": "DT_FLOAT"
          },
          "value": {
            "tensor": {
              "dtype": "DT_FLOAT",
              "tensorShape": {
                "dim": [
                  {
                    "size": "3"
                  },
                  {
                    "size": "3"
                  },
                  {
                    "size": "1"
                  },
                  {
                    "size": "1"
                  }
                ]
              }
            }
          }
        }
      },
      {
        "name": "model_58/tf.nn.convolution_287/convolution/filter",
        "op": "Const",
        "attr": {
          "value": {
            "tensor": {
              "dtype": "DT_FLOAT",
              "tensorShape": {
                "dim": [
                  {
                    "size": "3"
                  },
                  {
                    "size": "3"
                  },
                  {
                    "size": "1"
                  },
                  {
                    "size": "1"
                  }
                ]
              }
            }
          },
          "dtype": {
            "type": "DT_FLOAT"
          }
        }
      },
      {
        "name": "model_58/tf.nn.convolution_288/convolution/filter",
        "op": "Const",
        "attr": {
          "dtype": {
            "type": "DT_FLOAT"
          },
          "value": {
            "tensor": {
              "dtype": "DT_FLOAT",
              "tensorShape": {
                "dim": [
                  {
                    "size": "3"
                  },
                  {
                    "size": "3"
                  },
                  {
                    "size": "1"
                  },
                  {
                    "size": "1"
                  }
                ]
              }
            }
          }
        }
      },
      {
        "name": "model_58/tf.nn.convolution_289/convolution/filter",
        "op": "Const",
        "attr": {
          "value": {
            "tensor": {
              "dtype": "DT_FLOAT",
              "tensorShape": {
                "dim": [
                  {
                    "size": "3"
                  },
                  {
                    "size": "3"
                  },
                  {
                    "size": "1"
                  },
                  {
                    "size": "1"
                  }
                ]
              }
            }
          },
          "dtype": {
            "type": "DT_FLOAT"
          }
        }
      },
      {
        "name": "model_58/tf.nn.convolution_290/convolution/filter",
        "op": "Const",
        "attr": {
          "value": {
            "tensor": {
              "dtype": "DT_FLOAT",
              "tensorShape": {
                "dim": [
                  {
                    "size": "3"
                  },
                  {
                    "size": "3"
                  },
                  {
                    "size": "1"
                  },
                  {
                    "size": "1"
                  }
                ]
              }
            }
          },
          "dtype": {
            "type": "DT_FLOAT"
          }
        }
      },
      {
        "name": "model_58/tf.nn.convolution_291/convolution/filter",
        "op": "Const",
        "attr": {
          "value": {
            "tensor": {
              "dtype": "DT_FLOAT",
              "tensorShape": {
                "dim": [
                  {
                    "size": "3"
                  },
                  {
                    "size": "3"
                  },
                  {
                    "size": "1"
                  },
                  {
                    "size": "1"
                  }
                ]
              }
            }
          },
          "dtype": {
            "type": "DT_FLOAT"
          }
        }
      },
      {
        "name": "model_58/tf.nn.convolution_292/convolution/filter",
        "op": "Const",
        "attr": {
          "value": {
            "tensor": {
              "dtype": "DT_FLOAT",
              "tensorShape": {
                "dim": [
                  {
                    "size": "3"
                  },
                  {
                    "size": "3"
                  },
                  {
                    "size": "1"
                  },
                  {
                    "size": "1"
                  }
                ]
              }
            }
          },
          "dtype": {
            "type": "DT_FLOAT"
          }
        }
      },
      {
        "name": "model_58/tf.nn.convolution_293/convolution/filter",
        "op": "Const",
        "attr": {
          "value": {
            "tensor": {
              "dtype": "DT_FLOAT",
              "tensorShape": {
                "dim": [
                  {
                    "size": "3"
                  },
                  {
                    "size": "3"
                  },
                  {
                    "size": "1"
                  },
                  {
                    "size": "1"
                  }
                ]
              }
            }
          },
          "dtype": {
            "type": "DT_FLOAT"
          }
        }
      },
      {
        "name": "model_58/tf.nn.convolution_294/convolution/filter",
        "op": "Const",
        "attr": {
          "value": {
            "tensor": {
              "dtype": "DT_FLOAT",
              "tensorShape": {
                "dim": [
                  {
                    "size": "3"
                  },
                  {
                    "size": "3"
                  },
                  {
                    "size": "1"
                  },
                  {
                    "size": "1"
                  }
                ]
              }
            }
          },
          "dtype": {
            "type": "DT_FLOAT"
          }
        }
      },
      {
        "name": "model_58/tf.nn.convolution_295/convolution/filter",
        "op": "Const",
        "attr": {
          "value": {
            "tensor": {
              "dtype": "DT_FLOAT",
              "tensorShape": {
                "dim": [
                  {
                    "size": "3"
                  },
                  {
                    "size": "3"
                  },
                  {
                    "size": "1"
                  },
                  {
                    "size": "1"
                  }
                ]
              }
            }
          },
          "dtype": {
            "type": "DT_FLOAT"
          }
        }
      },
      {
        "name": "model_58/tf.nn.convolution_296/convolution/filter",
        "op": "Const",
        "attr": {
          "dtype": {
            "type": "DT_FLOAT"
          },
          "value": {
            "tensor": {
              "dtype": "DT_FLOAT",
              "tensorShape": {
                "dim": [
                  {
                    "size": "3"
                  },
                  {
                    "size": "3"
                  },
                  {
                    "size": "1"
                  },
                  {
                    "size": "1"
                  }
                ]
              }
            }
          }
        }
      },
      {
        "name": "model_58/tf.nn.convolution_297/convolution/filter",
        "op": "Const",
        "attr": {
          "value": {
            "tensor": {
              "dtype": "DT_FLOAT",
              "tensorShape": {
                "dim": [
                  {
                    "size": "3"
                  },
                  {
                    "size": "3"
                  },
                  {
                    "size": "1"
                  },
                  {
                    "size": "1"
                  }
                ]
              }
            }
          },
          "dtype": {
            "type": "DT_FLOAT"
          }
        }
      },
      {
        "name": "model_58/tf.nn.convolution_298/convolution/filter",
        "op": "Const",
        "attr": {
          "value": {
            "tensor": {
              "dtype": "DT_FLOAT",
              "tensorShape": {
                "dim": [
                  {
                    "size": "3"
                  },
                  {
                    "size": "3"
                  },
                  {
                    "size": "1"
                  },
                  {
                    "size": "1"
                  }
                ]
              }
            }
          },
          "dtype": {
            "type": "DT_FLOAT"
          }
        }
      },
      {
        "name": "model_58/tf.nn.convolution_299/convolution/filter",
        "op": "Const",
        "attr": {
          "dtype": {
            "type": "DT_FLOAT"
          },
          "value": {
            "tensor": {
              "dtype": "DT_FLOAT",
              "tensorShape": {
                "dim": [
                  {
                    "size": "3"
                  },
                  {
                    "size": "3"
                  },
                  {
                    "size": "1"
                  },
                  {
                    "size": "1"
                  }
                ]
              }
            }
          }
        }
      },
      {
        "name": "model_58/tf.nn.convolution_300/convolution/filter",
        "op": "Const",
        "attr": {
          "dtype": {
            "type": "DT_FLOAT"
          },
          "value": {
            "tensor": {
              "dtype": "DT_FLOAT",
              "tensorShape": {
                "dim": [
                  {
                    "size": "3"
                  },
                  {
                    "size": "3"
                  },
                  {
                    "size": "1"
                  },
                  {
                    "size": "1"
                  }
                ]
              }
            }
          }
        }
      },
      {
        "name": "model_58/tf.nn.convolution_301/convolution/filter",
        "op": "Const",
        "attr": {
          "value": {
            "tensor": {
              "dtype": "DT_FLOAT",
              "tensorShape": {
                "dim": [
                  {
                    "size": "3"
                  },
                  {
                    "size": "3"
                  },
                  {
                    "size": "1"
                  },
                  {
                    "size": "1"
                  }
                ]
              }
            }
          },
          "dtype": {
            "type": "DT_FLOAT"
          }
        }
      },
      {
        "name": "model_58/tf.nn.convolution_302/convolution/filter",
        "op": "Const",
        "attr": {
          "dtype": {
            "type": "DT_FLOAT"
          },
          "value": {
            "tensor": {
              "dtype": "DT_FLOAT",
              "tensorShape": {
                "dim": [
                  {
                    "size": "3"
                  },
                  {
                    "size": "3"
                  },
                  {
                    "size": "1"
                  },
                  {
                    "size": "1"
                  }
                ]
              }
            }
          }
        }
      },
      {
        "name": "model_58/tf.nn.convolution_303/convolution/filter",
        "op": "Const",
        "attr": {
          "value": {
            "tensor": {
              "dtype": "DT_FLOAT",
              "tensorShape": {
                "dim": [
                  {
                    "size": "3"
                  },
                  {
                    "size": "3"
                  },
                  {
                    "size": "1"
                  },
                  {
                    "size": "1"
                  }
                ]
              }
            }
          },
          "dtype": {
            "type": "DT_FLOAT"
          }
        }
      },
      {
        "name": "model_58/tf.nn.convolution_304/convolution/filter",
        "op": "Const",
        "attr": {
          "value": {
            "tensor": {
              "dtype": "DT_FLOAT",
              "tensorShape": {
                "dim": [
                  {
                    "size": "3"
                  },
                  {
                    "size": "3"
                  },
                  {
                    "size": "1"
                  },
                  {
                    "size": "1"
                  }
                ]
              }
            }
          },
          "dtype": {
            "type": "DT_FLOAT"
          }
        }
      },
      {
        "name": "model_58/tf.nn.convolution_305/convolution/filter",
        "op": "Const",
        "attr": {
          "value": {
            "tensor": {
              "dtype": "DT_FLOAT",
              "tensorShape": {
                "dim": [
                  {
                    "size": "3"
                  },
                  {
                    "size": "3"
                  },
                  {
                    "size": "1"
                  },
                  {
                    "size": "1"
                  }
                ]
              }
            }
          },
          "dtype": {
            "type": "DT_FLOAT"
          }
        }
      },
      {
        "name": "model_58/tf.nn.convolution_306/convolution/filter",
        "op": "Const",
        "attr": {
          "dtype": {
            "type": "DT_FLOAT"
          },
          "value": {
            "tensor": {
              "dtype": "DT_FLOAT",
              "tensorShape": {
                "dim": [
                  {
                    "size": "3"
                  },
                  {
                    "size": "3"
                  },
                  {
                    "size": "1"
                  },
                  {
                    "size": "1"
                  }
                ]
              }
            }
          }
        }
      },
      {
        "name": "model_58/tf.nn.convolution_307/convolution/filter",
        "op": "Const",
        "attr": {
          "dtype": {
            "type": "DT_FLOAT"
          },
          "value": {
            "tensor": {
              "dtype": "DT_FLOAT",
              "tensorShape": {
                "dim": [
                  {
                    "size": "3"
                  },
                  {
                    "size": "3"
                  },
                  {
                    "size": "1"
                  },
                  {
                    "size": "1"
                  }
                ]
              }
            }
          }
        }
      },
      {
        "name": "model_58/tf.nn.convolution_308/convolution/filter",
        "op": "Const",
        "attr": {
          "dtype": {
            "type": "DT_FLOAT"
          },
          "value": {
            "tensor": {
              "dtype": "DT_FLOAT",
              "tensorShape": {
                "dim": [
                  {
                    "size": "3"
                  },
                  {
                    "size": "3"
                  },
                  {
                    "size": "1"
                  },
                  {
                    "size": "1"
                  }
                ]
              }
            }
          }
        }
      },
      {
        "name": "model_58/tf.nn.convolution_309/convolution/filter",
        "op": "Const",
        "attr": {
          "dtype": {
            "type": "DT_FLOAT"
          },
          "value": {
            "tensor": {
              "dtype": "DT_FLOAT",
              "tensorShape": {
                "dim": [
                  {
                    "size": "3"
                  },
                  {
                    "size": "3"
                  },
                  {
                    "size": "1"
                  },
                  {
                    "size": "1"
                  }
                ]
              }
            }
          }
        }
      },
      {
        "name": "model_58/tf.nn.convolution_310/convolution/filter",
        "op": "Const",
        "attr": {
          "dtype": {
            "type": "DT_FLOAT"
          },
          "value": {
            "tensor": {
              "dtype": "DT_FLOAT",
              "tensorShape": {
                "dim": [
                  {
                    "size": "3"
                  },
                  {
                    "size": "3"
                  },
                  {
                    "size": "1"
                  },
                  {
                    "size": "1"
                  }
                ]
              }
            }
          }
        }
      },
      {
        "name": "model_58/tf.nn.convolution_311/convolution/filter",
        "op": "Const",
        "attr": {
          "dtype": {
            "type": "DT_FLOAT"
          },
          "value": {
            "tensor": {
              "dtype": "DT_FLOAT",
              "tensorShape": {
                "dim": [
                  {
                    "size": "3"
                  },
                  {
                    "size": "3"
                  },
                  {
                    "size": "1"
                  },
                  {
                    "size": "1"
                  }
                ]
              }
            }
          }
        }
      },
      {
        "name": "model_58/tf.nn.convolution_312/convolution/filter",
        "op": "Const",
        "attr": {
          "value": {
            "tensor": {
              "dtype": "DT_FLOAT",
              "tensorShape": {
                "dim": [
                  {
                    "size": "3"
                  },
                  {
                    "size": "3"
                  },
                  {
                    "size": "1"
                  },
                  {
                    "size": "1"
                  }
                ]
              }
            }
          },
          "dtype": {
            "type": "DT_FLOAT"
          }
        }
      },
      {
        "name": "model_58/tf.nn.convolution_313/convolution/filter",
        "op": "Const",
        "attr": {
          "value": {
            "tensor": {
              "dtype": "DT_FLOAT",
              "tensorShape": {
                "dim": [
                  {
                    "size": "3"
                  },
                  {
                    "size": "3"
                  },
                  {
                    "size": "1"
                  },
                  {
                    "size": "1"
                  }
                ]
              }
            }
          },
          "dtype": {
            "type": "DT_FLOAT"
          }
        }
      },
      {
        "name": "model_58/tf.nn.convolution_314/convolution/filter",
        "op": "Const",
        "attr": {
          "value": {
            "tensor": {
              "dtype": "DT_FLOAT",
              "tensorShape": {
                "dim": [
                  {
                    "size": "3"
                  },
                  {
                    "size": "3"
                  },
                  {
                    "size": "1"
                  },
                  {
                    "size": "1"
                  }
                ]
              }
            }
          },
          "dtype": {
            "type": "DT_FLOAT"
          }
        }
      },
      {
        "name": "model_58/tf.nn.convolution_315/convolution/filter",
        "op": "Const",
        "attr": {
          "dtype": {
            "type": "DT_FLOAT"
          },
          "value": {
            "tensor": {
              "dtype": "DT_FLOAT",
              "tensorShape": {
                "dim": [
                  {
                    "size": "3"
                  },
                  {
                    "size": "3"
                  },
                  {
                    "size": "1"
                  },
                  {
                    "size": "1"
                  }
                ]
              }
            }
          }
        }
      },
      {
        "name": "model_58/tf.nn.convolution_316/convolution/filter",
        "op": "Const",
        "attr": {
          "value": {
            "tensor": {
              "dtype": "DT_FLOAT",
              "tensorShape": {
                "dim": [
                  {
                    "size": "3"
                  },
                  {
                    "size": "3"
                  },
                  {
                    "size": "1"
                  },
                  {
                    "size": "1"
                  }
                ]
              }
            }
          },
          "dtype": {
            "type": "DT_FLOAT"
          }
        }
      },
      {
        "name": "model_58/tf.nn.convolution_317/convolution/filter",
        "op": "Const",
        "attr": {
          "value": {
            "tensor": {
              "dtype": "DT_FLOAT",
              "tensorShape": {
                "dim": [
                  {
                    "size": "3"
                  },
                  {
                    "size": "3"
                  },
                  {
                    "size": "1"
                  },
                  {
                    "size": "1"
                  }
                ]
              }
            }
          },
          "dtype": {
            "type": "DT_FLOAT"
          }
        }
      },
      {
        "name": "model_58/tf.nn.convolution_318/convolution/filter",
        "op": "Const",
        "attr": {
          "value": {
            "tensor": {
              "dtype": "DT_FLOAT",
              "tensorShape": {
                "dim": [
                  {
                    "size": "3"
                  },
                  {
                    "size": "3"
                  },
                  {
                    "size": "1"
                  },
                  {
                    "size": "1"
                  }
                ]
              }
            }
          },
          "dtype": {
            "type": "DT_FLOAT"
          }
        }
      },
      {
        "name": "model_58/tf.nn.convolution_319/convolution/filter",
        "op": "Const",
        "attr": {
          "dtype": {
            "type": "DT_FLOAT"
          },
          "value": {
            "tensor": {
              "dtype": "DT_FLOAT",
              "tensorShape": {
                "dim": [
                  {
                    "size": "3"
                  },
                  {
                    "size": "3"
                  },
                  {
                    "size": "1"
                  },
                  {
                    "size": "1"
                  }
                ]
              }
            }
          }
        }
      },
      {
        "name": "model_58/tf.nn.convolution_320/convolution/filter",
        "op": "Const",
        "attr": {
          "value": {
            "tensor": {
              "dtype": "DT_FLOAT",
              "tensorShape": {
                "dim": [
                  {
                    "size": "3"
                  },
                  {
                    "size": "3"
                  },
                  {
                    "size": "1"
                  },
                  {
                    "size": "1"
                  }
                ]
              }
            }
          },
          "dtype": {
            "type": "DT_FLOAT"
          }
        }
      },
      {
        "name": "model_58/tf.nn.convolution_321/convolution/filter",
        "op": "Const",
        "attr": {
          "dtype": {
            "type": "DT_FLOAT"
          },
          "value": {
            "tensor": {
              "dtype": "DT_FLOAT",
              "tensorShape": {
                "dim": [
                  {
                    "size": "3"
                  },
                  {
                    "size": "3"
                  },
                  {
                    "size": "1"
                  },
                  {
                    "size": "1"
                  }
                ]
              }
            }
          }
        }
      },
      {
        "name": "model_58/tf.nn.convolution_322/convolution/filter",
        "op": "Const",
        "attr": {
          "value": {
            "tensor": {
              "dtype": "DT_FLOAT",
              "tensorShape": {
                "dim": [
                  {
                    "size": "3"
                  },
                  {
                    "size": "3"
                  },
                  {
                    "size": "1"
                  },
                  {
                    "size": "1"
                  }
                ]
              }
            }
          },
          "dtype": {
            "type": "DT_FLOAT"
          }
        }
      },
      {
        "name": "model_58/tf.nn.convolution_323/convolution/filter",
        "op": "Const",
        "attr": {
          "value": {
            "tensor": {
              "dtype": "DT_FLOAT",
              "tensorShape": {
                "dim": [
                  {
                    "size": "3"
                  },
                  {
                    "size": "3"
                  },
                  {
                    "size": "1"
                  },
                  {
                    "size": "1"
                  }
                ]
              }
            }
          },
          "dtype": {
            "type": "DT_FLOAT"
          }
        }
      },
      {
        "name": "model_58/tf.nn.convolution_324/convolution/filter",
        "op": "Const",
        "attr": {
          "value": {
            "tensor": {
              "dtype": "DT_FLOAT",
              "tensorShape": {
                "dim": [
                  {
                    "size": "3"
                  },
                  {
                    "size": "3"
                  },
                  {
                    "size": "1"
                  },
                  {
                    "size": "1"
                  }
                ]
              }
            }
          },
          "dtype": {
            "type": "DT_FLOAT"
          }
        }
      },
      {
        "name": "model_58/tf.nn.convolution_325/convolution/filter",
        "op": "Const",
        "attr": {
          "dtype": {
            "type": "DT_FLOAT"
          },
          "value": {
            "tensor": {
              "dtype": "DT_FLOAT",
              "tensorShape": {
                "dim": [
                  {
                    "size": "3"
                  },
                  {
                    "size": "3"
                  },
                  {
                    "size": "1"
                  },
                  {
                    "size": "1"
                  }
                ]
              }
            }
          }
        }
      },
      {
        "name": "model_58/tf.nn.convolution_326/convolution/filter",
        "op": "Const",
        "attr": {
          "value": {
            "tensor": {
              "dtype": "DT_FLOAT",
              "tensorShape": {
                "dim": [
                  {
                    "size": "3"
                  },
                  {
                    "size": "3"
                  },
                  {
                    "size": "1"
                  },
                  {
                    "size": "1"
                  }
                ]
              }
            }
          },
          "dtype": {
            "type": "DT_FLOAT"
          }
        }
      },
      {
        "name": "model_58/tf.nn.convolution_327/convolution/filter",
        "op": "Const",
        "attr": {
          "value": {
            "tensor": {
              "dtype": "DT_FLOAT",
              "tensorShape": {
                "dim": [
                  {
                    "size": "3"
                  },
                  {
                    "size": "3"
                  },
                  {
                    "size": "1"
                  },
                  {
                    "size": "1"
                  }
                ]
              }
            }
          },
          "dtype": {
            "type": "DT_FLOAT"
          }
        }
      },
      {
        "name": "model_58/tf.nn.convolution_328/convolution/filter",
        "op": "Const",
        "attr": {
          "value": {
            "tensor": {
              "dtype": "DT_FLOAT",
              "tensorShape": {
                "dim": [
                  {
                    "size": "3"
                  },
                  {
                    "size": "3"
                  },
                  {
                    "size": "1"
                  },
                  {
                    "size": "1"
                  }
                ]
              }
            }
          },
          "dtype": {
            "type": "DT_FLOAT"
          }
        }
      },
      {
        "name": "model_58/tf.nn.convolution_329/convolution/filter",
        "op": "Const",
        "attr": {
          "value": {
            "tensor": {
              "dtype": "DT_FLOAT",
              "tensorShape": {
                "dim": [
                  {
                    "size": "3"
                  },
                  {
                    "size": "3"
                  },
                  {
                    "size": "1"
                  },
                  {
                    "size": "1"
                  }
                ]
              }
            }
          },
          "dtype": {
            "type": "DT_FLOAT"
          }
        }
      },
      {
        "name": "model_58/tf.nn.convolution_330/convolution/filter",
        "op": "Const",
        "attr": {
          "value": {
            "tensor": {
              "dtype": "DT_FLOAT",
              "tensorShape": {
                "dim": [
                  {
                    "size": "3"
                  },
                  {
                    "size": "3"
                  },
                  {
                    "size": "1"
                  },
                  {
                    "size": "1"
                  }
                ]
              }
            }
          },
          "dtype": {
            "type": "DT_FLOAT"
          }
        }
      },
      {
        "name": "model_58/tf.nn.convolution_331/convolution/filter",
        "op": "Const",
        "attr": {
          "value": {
            "tensor": {
              "dtype": "DT_FLOAT",
              "tensorShape": {
                "dim": [
                  {
                    "size": "3"
                  },
                  {
                    "size": "3"
                  },
                  {
                    "size": "1"
                  },
                  {
                    "size": "1"
                  }
                ]
              }
            }
          },
          "dtype": {
            "type": "DT_FLOAT"
          }
        }
      },
      {
        "name": "model_58/tf.nn.convolution_332/convolution/filter",
        "op": "Const",
        "attr": {
          "dtype": {
            "type": "DT_FLOAT"
          },
          "value": {
            "tensor": {
              "dtype": "DT_FLOAT",
              "tensorShape": {
                "dim": [
                  {
                    "size": "3"
                  },
                  {
                    "size": "3"
                  },
                  {
                    "size": "1"
                  },
                  {
                    "size": "1"
                  }
                ]
              }
            }
          }
        }
      },
      {
        "name": "model_58/tf.nn.convolution_333/convolution/filter",
        "op": "Const",
        "attr": {
          "dtype": {
            "type": "DT_FLOAT"
          },
          "value": {
            "tensor": {
              "dtype": "DT_FLOAT",
              "tensorShape": {
                "dim": [
                  {
                    "size": "3"
                  },
                  {
                    "size": "3"
                  },
                  {
                    "size": "1"
                  },
                  {
                    "size": "1"
                  }
                ]
              }
            }
          }
        }
      },
      {
        "name": "model_58/tf.nn.convolution_334/convolution/filter",
        "op": "Const",
        "attr": {
          "value": {
            "tensor": {
              "dtype": "DT_FLOAT",
              "tensorShape": {
                "dim": [
                  {
                    "size": "3"
                  },
                  {
                    "size": "3"
                  },
                  {
                    "size": "1"
                  },
                  {
                    "size": "1"
                  }
                ]
              }
            }
          },
          "dtype": {
            "type": "DT_FLOAT"
          }
        }
      },
      {
        "name": "model_58/tf.nn.convolution_335/convolution/filter",
        "op": "Const",
        "attr": {
          "value": {
            "tensor": {
              "dtype": "DT_FLOAT",
              "tensorShape": {
                "dim": [
                  {
                    "size": "3"
                  },
                  {
                    "size": "3"
                  },
                  {
                    "size": "1"
                  },
                  {
                    "size": "1"
                  }
                ]
              }
            }
          },
          "dtype": {
            "type": "DT_FLOAT"
          }
        }
      },
      {
        "name": "model_58/tf.nn.convolution_336/convolution/filter",
        "op": "Const",
        "attr": {
          "dtype": {
            "type": "DT_FLOAT"
          },
          "value": {
            "tensor": {
              "dtype": "DT_FLOAT",
              "tensorShape": {
                "dim": [
                  {
                    "size": "3"
                  },
                  {
                    "size": "3"
                  },
                  {
                    "size": "1"
                  },
                  {
                    "size": "1"
                  }
                ]
              }
            }
          }
        }
      },
      {
        "name": "model_58/tf.nn.convolution_337/convolution/filter",
        "op": "Const",
        "attr": {
          "dtype": {
            "type": "DT_FLOAT"
          },
          "value": {
            "tensor": {
              "dtype": "DT_FLOAT",
              "tensorShape": {
                "dim": [
                  {
                    "size": "3"
                  },
                  {
                    "size": "3"
                  },
                  {
                    "size": "1"
                  },
                  {
                    "size": "1"
                  }
                ]
              }
            }
          }
        }
      },
      {
        "name": "model_58/tf.nn.convolution_338/convolution/filter",
        "op": "Const",
        "attr": {
          "dtype": {
            "type": "DT_FLOAT"
          },
          "value": {
            "tensor": {
              "dtype": "DT_FLOAT",
              "tensorShape": {
                "dim": [
                  {
                    "size": "3"
                  },
                  {
                    "size": "3"
                  },
                  {
                    "size": "1"
                  },
                  {
                    "size": "1"
                  }
                ]
              }
            }
          }
        }
      },
      {
        "name": "model_58/tf.nn.convolution_339/convolution/filter",
        "op": "Const",
        "attr": {
          "dtype": {
            "type": "DT_FLOAT"
          },
          "value": {
            "tensor": {
              "dtype": "DT_FLOAT",
              "tensorShape": {
                "dim": [
                  {
                    "size": "3"
                  },
                  {
                    "size": "3"
                  },
                  {
                    "size": "1"
                  },
                  {
                    "size": "1"
                  }
                ]
              }
            }
          }
        }
      },
      {
        "name": "model_58/tf.nn.convolution_340/convolution/filter",
        "op": "Const",
        "attr": {
          "value": {
            "tensor": {
              "dtype": "DT_FLOAT",
              "tensorShape": {
                "dim": [
                  {
                    "size": "3"
                  },
                  {
                    "size": "3"
                  },
                  {
                    "size": "1"
                  },
                  {
                    "size": "1"
                  }
                ]
              }
            }
          },
          "dtype": {
            "type": "DT_FLOAT"
          }
        }
      },
      {
        "name": "model_58/tf.nn.convolution_341/convolution/filter",
        "op": "Const",
        "attr": {
          "value": {
            "tensor": {
              "dtype": "DT_FLOAT",
              "tensorShape": {
                "dim": [
                  {
                    "size": "3"
                  },
                  {
                    "size": "3"
                  },
                  {
                    "size": "1"
                  },
                  {
                    "size": "1"
                  }
                ]
              }
            }
          },
          "dtype": {
            "type": "DT_FLOAT"
          }
        }
      },
      {
        "name": "model_58/tf.nn.convolution_342/convolution/filter",
        "op": "Const",
        "attr": {
          "value": {
            "tensor": {
              "dtype": "DT_FLOAT",
              "tensorShape": {
                "dim": [
                  {
                    "size": "3"
                  },
                  {
                    "size": "3"
                  },
                  {
                    "size": "1"
                  },
                  {
                    "size": "1"
                  }
                ]
              }
            }
          },
          "dtype": {
            "type": "DT_FLOAT"
          }
        }
      },
      {
        "name": "model_58/tf.nn.convolution_343/convolution/filter",
        "op": "Const",
        "attr": {
          "value": {
            "tensor": {
              "dtype": "DT_FLOAT",
              "tensorShape": {
                "dim": [
                  {
                    "size": "3"
                  },
                  {
                    "size": "3"
                  },
                  {
                    "size": "1"
                  },
                  {
                    "size": "1"
                  }
                ]
              }
            }
          },
          "dtype": {
            "type": "DT_FLOAT"
          }
        }
      },
      {
        "name": "model_58/tf.nn.convolution_344/convolution/filter",
        "op": "Const",
        "attr": {
          "value": {
            "tensor": {
              "dtype": "DT_FLOAT",
              "tensorShape": {
                "dim": [
                  {
                    "size": "3"
                  },
                  {
                    "size": "3"
                  },
                  {
                    "size": "1"
                  },
                  {
                    "size": "1"
                  }
                ]
              }
            }
          },
          "dtype": {
            "type": "DT_FLOAT"
          }
        }
      },
      {
        "name": "model_58/tf.nn.convolution_345/convolution/filter",
        "op": "Const",
        "attr": {
          "dtype": {
            "type": "DT_FLOAT"
          },
          "value": {
            "tensor": {
              "dtype": "DT_FLOAT",
              "tensorShape": {
                "dim": [
                  {
                    "size": "3"
                  },
                  {
                    "size": "3"
                  },
                  {
                    "size": "1"
                  },
                  {
                    "size": "1"
                  }
                ]
              }
            }
          }
        }
      },
      {
        "name": "model_58/tf.nn.convolution_346/convolution/filter",
        "op": "Const",
        "attr": {
          "value": {
            "tensor": {
              "dtype": "DT_FLOAT",
              "tensorShape": {
                "dim": [
                  {
                    "size": "3"
                  },
                  {
                    "size": "3"
                  },
                  {
                    "size": "1"
                  },
                  {
                    "size": "1"
                  }
                ]
              }
            }
          },
          "dtype": {
            "type": "DT_FLOAT"
          }
        }
      },
      {
        "name": "model_58/tf.nn.convolution_347/convolution/filter",
        "op": "Const",
        "attr": {
          "dtype": {
            "type": "DT_FLOAT"
          },
          "value": {
            "tensor": {
              "dtype": "DT_FLOAT",
              "tensorShape": {
                "dim": [
                  {
                    "size": "3"
                  },
                  {
                    "size": "3"
                  },
                  {
                    "size": "1"
                  },
                  {
                    "size": "1"
                  }
                ]
              }
            }
          }
        }
      },
      {
        "name": "model_58/tf.nn.convolution_348/convolution/filter",
        "op": "Const",
        "attr": {
          "dtype": {
            "type": "DT_FLOAT"
          },
          "value": {
            "tensor": {
              "dtype": "DT_FLOAT",
              "tensorShape": {
                "dim": [
                  {
                    "size": "3"
                  },
                  {
                    "size": "3"
                  },
                  {
                    "size": "1"
                  },
                  {
                    "size": "1"
                  }
                ]
              }
            }
          }
        }
      },
      {
        "name": "model_58/tf.nn.convolution_349/convolution/filter",
        "op": "Const",
        "attr": {
          "value": {
            "tensor": {
              "dtype": "DT_FLOAT",
              "tensorShape": {
                "dim": [
                  {
                    "size": "3"
                  },
                  {
                    "size": "3"
                  },
                  {
                    "size": "1"
                  },
                  {
                    "size": "1"
                  }
                ]
              }
            }
          },
          "dtype": {
            "type": "DT_FLOAT"
          }
        }
      },
      {
        "name": "model_58/tf.nn.convolution_350/convolution/filter",
        "op": "Const",
        "attr": {
          "value": {
            "tensor": {
              "dtype": "DT_FLOAT",
              "tensorShape": {
                "dim": [
                  {
                    "size": "3"
                  },
                  {
                    "size": "3"
                  },
                  {
                    "size": "1"
                  },
                  {
                    "size": "1"
                  }
                ]
              }
            }
          },
          "dtype": {
            "type": "DT_FLOAT"
          }
        }
      },
      {
        "name": "model_58/tf.nn.convolution_351/convolution/filter",
        "op": "Const",
        "attr": {
          "dtype": {
            "type": "DT_FLOAT"
          },
          "value": {
            "tensor": {
              "dtype": "DT_FLOAT",
              "tensorShape": {
                "dim": [
                  {
                    "size": "3"
                  },
                  {
                    "size": "3"
                  },
                  {
                    "size": "1"
                  },
                  {
                    "size": "1"
                  }
                ]
              }
            }
          }
        }
…
          "dtype": "float32",
          "quantization": {
            "dtype": "uint8",
            "min": -0.8470105984631707,
            "scale": 0.004705614435906504,
            "original_dtype": "float32"
          }
        },
        {
          "name": "model_58/tf.nn.convolution_360/convolution/filter",
          "shape": [
            3,
            3,
            1,
            1
          ],
          "dtype": "float32",
          "quantization": {
            "dtype": "uint8",
            "min": -1.197778178313199,
            "scale": 0.006545235947066662,
            "original_dtype": "float32"
          }
        },
        {
          "name": "model_58/tf.nn.convolution_361/convolution/filter",
          "shape": [
            3,
            3,
            1,
            1
          ],
          "dtype": "float32",
          "quantization": {
            "dtype": "uint8",
            "min": -0.2370539685820832,
            "scale": 0.001092414601760752,
            "original_dtype": "float32"
          }
        },
        {
          "name": "model_58/tf.nn.convolution_362/convolution/filter",
          "shape": [
            3,
            3,
            1,
            1
          ],
          "dtype": "float32",
          "quantization": {
            "dtype": "uint8",
            "min": -0.33353073362480196,
            "scale": 0.0013394808579309315,
            "original_dtype": "float32"
          }
        },
        {
          "name": "model_58/tf.nn.convolution_363/convolution/filter",
          "shape": [
            3,
            3,
            1,
            1
          ],
          "dtype": "float32",
          "quantization": {
            "dtype": "uint8",
            "min": -0.3427918776139325,
            "scale": 0.0013549086071696936,
            "original_dtype": "float32"
          }
        },
        {
          "name": "model_58/tf.nn.convolution_364/convolution/filter",
          "shape": [
            3,
            3,
            1,
            1
          ],
          "dtype": "float32",
          "quantization": {
            "dtype": "uint8",
            "min": -0.37658497393131257,
            "scale": 0.001595699042081833,
            "original_dtype": "float32"
          }
        },
        {
          "name": "model_58/tf.nn.convolution_365/convolution/filter",
          "shape": [
            3,
            3,
            1,
            1
          ],
          "dtype": "float32",
          "quantization": {
            "dtype": "uint8",
            "min": -0.24554652387604992,
            "scale": 0.0010769584380528505,
            "original_dtype": "float32"
          }
        },
        {
          "name": "model_58/tf.nn.convolution_366/convolution/filter",
          "shape": [
            3,
            3,
            1,
            1
          ],
          "dtype": "float32",
          "quantization": {
            "dtype": "uint8",
            "min": -0.49125199142624354,
            "scale": 0.0021174654802855325,
            "original_dtype": "float32"
          }
        },
        {
          "name": "model_58/tf.nn.convolution_367/convolution/filter",
          "shape": [
            3,
            3,
            1,
            1
          ],
          "dtype": "float32",
          "quantization": {
            "dtype": "uint8",
            "min": -1.347506544636745,
            "scale": 0.008216503320955762,
            "original_dtype": "float32"
          }
        },
        {
          "name": "model_58/tf.nn.convolution_368/convolution/filter",
          "shape": [
            3,
            3,
            1,
            1
          ],
          "dtype": "float32",
          "quantization": {
            "dtype": "uint8",
            "min": -0.5930992787959528,
            "scale": 0.01210406691420312,
            "original_dtype": "float32"
          }
        },
        {
          "name": "model_58/tf.nn.convolution_369/convolution/filter",
          "shape": [
            3,
            3,
            1,
            1
          ],
          "dtype": "float32",
          "quantization": {
            "dtype": "uint8",
            "min": -1.1584976841421688,
            "scale": 0.007723317894281125,
            "original_dtype": "float32"
          }
        },
        {
          "name": "model_58/tf.nn.convolution_370/convolution/filter",
          "shape": [
            3,
            3,
            1,
            1
          ],
          "dtype": "float32",
          "quantization": {
            "dtype": "uint8",
            "min": -0.578873970929314,
            "scale": 0.004287955340217141,
            "original_dtype": "float32"
          }
        },
        {
          "name": "model_58/tf.split_3/split/split_dim",
          "shape": [],
          "dtype": "int32"
        },
        {
          "name": "model_58/tf.split_2/split/split_dim",
          "shape": [],
          "dtype": "int32"
        },
        {
          "name": "model_58/tf.strided_slice_29/ones_like/tensor",
          "shape": [
            4
          ],
          "dtype": "int32"
        },
        {
          "name": "model_58/tf.strided_slice_29/StridedSlice/end",
          "shape": [
            4
          ],
          "dtype": "int32"
        },
        {
          "name": "model_58/tf.strided_slice_29/ones_like",
          "shape": [
            4
          ],
          "dtype": "int32"
        },
        {
          "name": "model_58/tf.nn.convolution_232/convolution/filter",
          "shape": [
            1,
            1,
            128,
            64
          ],
          "dtype": "float32",
          "quantization": {
            "dtype": "uint8",
            "min": -1.5697250366210938,
            "scale": 0.009233676686006434,
            "original_dtype": "float32"
          }
        },
        {
          "name": "model_58/tf.math.add_148/Add/y",
          "shape": [
            64
          ],
          "dtype": "float32",
          "quantization": {
            "dtype": "uint8",
            "min": -2.4397313650916606,
            "scale": 0.015441337753744686,
            "original_dtype": "float32"
          }
        },
        {
          "name": "model_58/tf.nn.convolution_234/convolution/filter",
          "shape": [
            3,
            3,
            64,
            64
          ],
          "dtype": "float32",
          "quantization": {
            "dtype": "uint8",
            "min": -0.9484399603862388,
            "scale": 0.007077910152136111,
            "original_dtype": "float32"
          }
        },
        {
          "name": "model_58/tf.math.add_150/Add/y",
          "shape": [
            64
          ],
          "dtype": "float32",
          "quantization": {
            "dtype": "uint8",
            "min": -1.5834578266330794,
            "scale": 0.017400635457506367,
            "original_dtype": "float32"
          }
        },
        {
          "name": "model_58/tf.nn.convolution_235/convolution/filter",
          "shape": [
            3,
            3,
            64,
            64
          ],
          "dtype": "float32",
          "quantization": {
            "dtype": "uint8",
            "min": -0.7360770129689983,
            "scale": 0.005076393192889644,
            "original_dtype": "float32"
          }
        },
        {
          "name": "model_58/tf.math.add_151/Add/y",
          "shape": [
            64
          ],
          "dtype": "float32",
          "quantization": {
            "dtype": "uint8",
            "min": -1.6776722833222035,
            "scale": 0.01280665865131453,
            "original_dtype": "float32"
          }
        },
        {
          "name": "model_58/tf.nn.convolution_236/convolution/filter",
          "shape": [
            3,
            3,
            64,
            64
          ],
          "dtype": "float32",
          "quantization": {
            "dtype": "uint8",
            "min": -0.5737503206028658,
            "scale": 0.0042500023748360425,
            "original_dtype": "float32"
          }
        },
        {
          "name": "model_58/tf.math.add_154/Add/y",
          "shape": [
            64
          ],
          "dtype": "float32",
          "quantization": {
            "dtype": "uint8",
            "min": -0.5426323937434776,
            "scale": 0.014279799835354674,
            "original_dtype": "float32"
          }
        },
        {
          "name": "model_58/tf.nn.convolution_237/convolution/filter",
          "shape": [
            3,
            3,
            64,
            64
          ],
          "dtype": "float32",
          "quantization": {
            "dtype": "uint8",
            "min": -1.1997801107518813,
            "scale": 0.007452050377340878,
            "original_dtype": "float32"
          }
        },
        {
          "name": "model_58/tf.math.add_155/Add/y",
          "shape": [
            64
          ],
          "dtype": "float32",
          "quantization": {
            "dtype": "uint8",
            "min": -0.9831406827066458,
            "scale": 0.021372623537100996,
            "original_dtype": "float32"
          }
        },
        {
          "name": "model_58/tf.strided_slice_27/ones_like/tensor",
          "shape": [
            4
          ],
          "dtype": "int32"
        },
        {
          "name": "model_58/tf.strided_slice_27/StridedSlice/end",
          "shape": [
            4
          ],
          "dtype": "int32"
        },
        {
          "name": "model_58/tf.strided_slice_27/ones_like",
          "shape": [
            4
          ],
          "dtype": "int32"
        },
        {
          "name": "model_58/tf.nn.convolution_222/convolution/filter",
          "shape": [
            1,
            1,
            64,
            32
          ],
          "dtype": "float32",
          "quantization": {
            "dtype": "uint8",
            "min": -0.4679059524162143,
            "scale": 0.0038669913422827626,
            "original_dtype": "float32"
          }
        },
        {
          "name": "model_58/tf.math.add_134/Add/y",
          "shape": [
            32
          ],
          "dtype": "float32",
          "quantization": {
            "dtype": "uint8",
            "min": -1.2524063727434944,
            "scale": 0.01018216563206093,
            "original_dtype": "float32"
          }
        },
        {
          "name": "model_58/tf.nn.convolution_224/convolution/filter",
          "shape": [
            3,
            3,
            32,
            32
          ],
          "dtype": "float32",
          "quantization": {
            "dtype": "uint8",
            "min": -0.9349925721392912,
            "scale": 0.006360493688022389,
            "original_dtype": "float32"
          }
        },
        {
          "name": "model_58/tf.math.add_136/Add/y",
          "shape": [
            32
          ],
          "dtype": "float32",
          "quantization": {
            "dtype": "uint8",
            "min": -2.0405734230490293,
            "scale": 0.015458889568553251,
            "original_dtype": "float32"
          }
        },
        {
          "name": "model_58/tf.nn.convolution_225/convolution/filter",
          "shape": [
            3,
            3,
            32,
            32
          ],
          "dtype": "float32",
          "quantization": {
            "dtype": "uint8",
            "min": -0.7915192463818719,
            "scale": 0.005996357927135393,
            "original_dtype": "float32"
          }
        },
        {
          "name": "model_58/tf.math.add_137/Add/y",
          "shape": [
            32
          ],
          "dtype": "float32",
          "quantization": {
            "dtype": "uint8",
            "min": -0.7261231427099191,
            "scale": 0.009191432186201507,
            "original_dtype": "float32"
          }
        },
        {
          "name": "model_58/tf.nn.convolution_226/convolution/filter",
          "shape": [
            3,
            3,
            32,
            32
          ],
          "dtype": "float32",
          "quantization": {
            "dtype": "uint8",
            "min": -0.5380067001370823,
            "scale": 0.003815650355582144,
            "original_dtype": "float32"
          }
        },
        {
          "name": "model_58/tf.math.add_140/Add/y",
          "shape": [
            32
          ],
          "dtype": "float32",
          "quantization": {
            "dtype": "uint8",
            "min": -1.493592092102649,
            "scale": 0.015240735633700502,
            "original_dtype": "float32"
          }
        },
        {
          "name": "model_58/tf.nn.convolution_227/convolution/filter",
          "shape": [
            3,
            3,
            32,
            32
          ],
          "dtype": "float32",
          "quantization": {
            "dtype": "uint8",
            "min": -1.3252478113361434,
            "scale": 0.009466055795258168,
            "original_dtype": "float32"
          }
        },
        {
          "name": "model_58/tf.math.add_141/Add/y",
          "shape": [
            32
          ],
          "dtype": "float32",
          "quantization": {
            "dtype": "uint8",
            "min": -1.2377441434299246,
            "scale": 0.014912580041324392,
            "original_dtype": "float32"
          }
        },
        {
          "name": "model_58/tf.strided_slice_25/ones_like/tensor",
          "shape": [
            4
          ],
          "dtype": "int32"
        },
        {
          "name": "model_58/tf.strided_slice_25/StridedSlice/end",
          "shape": [
            4
          ],
          "dtype": "int32"
        },
        {
          "name": "model_58/tf.strided_slice_25/ones_like",
          "shape": [
            4
          ],
          "dtype": "int32"
        },
        {
          "name": "model_58/tf.strided_slice_23/ones_like/tensor",
          "shape": [
            4
          ],
          "dtype": "int32"
        },
        {
          "name": "model_58/tf.strided_slice_23/StridedSlice/end",
          "shape": [
            4
          ],
          "dtype": "int32"
        },
        {
          "name": "model_58/tf.strided_slice_23/ones_like",
          "shape": [
            4
          ],
          "dtype": "int32"
        },
        {
          "name": "model_58/tf.compat.v1.pad_7/Pad/paddings",
          "shape": [
            4,
            2
          ],
          "dtype": "int32"
        },
        {
          "name": "model_58/tf.nn.convolution_209/convolution/filter",
          "shape": [
            3,
            3,
            3,
            16
          ],
          "dtype": "float32",
          "quantization": {
            "dtype": "uint8",
            "min": -25.695631161858056,
            "scale": 0.18486065584070543,
            "original_dtype": "float32"
          }
        },
        {
          "name": "model_58/tf.math.add_117/Add/y",
          "shape": [
            16
          ],
          "dtype": "float32",
          "quantization": {
            "dtype": "uint8",
            "min": -4.554714589960435,
            "scale": 0.04600721808040843,
            "original_dtype": "float32"
          }
        },
        {
          "name": "model_58/tf.compat.v1.pad_8/Pad/paddings",
          "shape": [
            4,
            2
          ],
          "dtype": "int32"
        },
        {
          "name": "model_58/tf.nn.convolution_210/convolution/filter",
          "shape": [
            3,
            3,
            16,
            32
          ],
          "dtype": "float32",
          "quantization": {
            "dtype": "uint8",
            "min": -4.147506281908821,
            "scale": 0.03027376848108628,
            "original_dtype": "float32"
          }
        },
        {
          "name": "model_58/tf.math.add_118/Add/y",
          "shape": [
            32
          ],
          "dtype": "float32",
          "quantization": {
            "dtype": "uint8",
            "min": -6.4988676071167,
            "scale": 0.048499011993408205,
            "original_dtype": "float32"
          }
        },
        {
          "name": "model_58/tf.nn.convolution_211/convolution/filter",
          "shape": [
            1,
            1,
            32,
            32
          ],
          "dtype": "float32",
          "quantization": {
            "dtype": "uint8",
            "min": -1.2679170159732593,
            "scale": 0.010565975133110495,
            "original_dtype": "float32"
          }
        },
        {
          "name": "model_58/tf.math.add_119/Add/y",
          "shape": [
            32
          ],
          "dtype": "float32",
          "quantization": {
            "dtype": "uint8",
            "min": -2.4950655581904395,
            "scale": 0.029012390211516737,
            "original_dtype": "float32"
          }
        },
        {
          "name": "model_58/tf.strided_slice_24/ones_like/tensor",
          "shape": [
            4
          ],
          "dtype": "int32"
        },
        {
          "name": "model_58/tf.strided_slice_24/StridedSlice/end",
          "shape": [
            4
          ],
          "dtype": "int32"
        },
        {
          "name": "model_58/tf.strided_slice_24/ones_like",
          "shape": [
            4
          ],
          "dtype": "int32"
        },
        {
          "name": "model_58/tf.nn.convolution_212/convolution/filter",
          "shape": [
            3,
            3,
            16,
            8
          ],
          "dtype": "float32",
          "quantization": {
            "dtype": "uint8",
            "min": -0.29081183408989625,
            "scale": 0.0018762053812251371,
            "original_dtype": "float32"
          }
        },
        {
          "name": "model_58/tf.math.add_120/Add/y",
          "shape": [
            8
          ],
          "dtype": "float32",
          "quantization": {
            "dtype": "uint8",
            "min": -0.4924565904280719,
            "scale": 0.007576255237354952,
            "original_dtype": "float32"
          }
        },
        {
          "name": "model_58/tf.nn.convolution_213/convolution/filter",
          "shape": [
            3,
            3,
            8,
            16
          ],
          "dtype": "float32",
          "quantization": {
            "dtype": "uint8",
            "min": -11.9737938376034,
            "scale": 0.08432249181410846,
            "original_dtype": "float32"
          }
        },
        {
          "name": "model_58/tf.math.add_121/Add/y",
          "shape": [
            16
          ],
          "dtype": "float32",
          "quantization": {
            "dtype": "uint8",
            "min": -14.11684284210205,
            "scale": 0.10156002044677734,
            "original_dtype": "float32"
          }
        },
        {
          "name": "model_58/tf.concat_27/concat/axis",
          "shape": [],
          "dtype": "int32"
        },
        {
          "name": "model_58/tf.nn.convolution_214/convolution/filter",
          "shape": [
            1,
            1,
            48,
            64
          ],
          "dtype": "float32",
          "quantization": {
            "dtype": "uint8",
            "min": -1.0144434540879492,
            "scale": 0.007987743732975979,
            "original_dtype": "float32"
          }
        },
        {
          "name": "model_58/tf.math.add_124/Add/y",
          "shape": [
            64
          ],
          "dtype": "float32",
          "quantization": {
            "dtype": "uint8",
            "min": -8.986618868509927,
            "scale": 0.06465193430582682,
            "original_dtype": "float32"
          }
        },
        {
          "name": "model_58/tf.compat.v1.pad_9/Pad/paddings",
          "shape": [
            4,
            2
          ],
          "dtype": "int32"
        },
        {
          "name": "model_58/tf.nn.convolution_215/convolution/filter",
          "shape": [
            3,
            3,
            64,
            64
          ],
          "dtype": "float32",
          "quantization": {
            "dtype": "uint8",
            "min": -0.5990726915060305,
            "scale": 0.004470691727656944,
            "original_dtype": "float32"
          }
        },
        {
          "name": "model_58/tf.math.add_125/Add/y",
          "shape": [
            64
          ],
          "dtype": "float32",
          "quantization": {
            "dtype": "uint8",
            "min": -0.9543832217945771,
            "scale": 0.019882983787387024,
            "original_dtype": "float32"
          }
        },
        {
          "name": "model_58/tf.nn.convolution_216/convolution/filter",
          "shape": [
            1,
            1,
            64,
            64
          ],
          "dtype": "float32",
          "quantization": {
            "dtype": "uint8",
            "min": -1.0558259113162172,
            "scale": 0.008121737779355516,
            "original_dtype": "float32"
          }
        },
        {
          "name": "model_58/tf.math.add_126/Add/y",
          "shape": [
            64
          ],
          "dtype": "float32",
          "quantization": {
            "dtype": "uint8",
            "min": -4.600838973475438,
            "scale": 0.03622707853130266,
            "original_dtype": "float32"
          }
        },
        {
          "name": "model_58/tf.strided_slice_26/ones_like/tensor",
          "shape": [
            4
          ],
          "dtype": "int32"
        },
        {
          "name": "model_58/tf.strided_slice_26/StridedSlice/end",
          "shape": [
            4
          ],
          "dtype": "int32"
        },
        {
          "name": "model_58/tf.strided_slice_26/ones_like",
          "shape": [
            4
          ],
          "dtype": "int32"
        },
        {
          "name": "model_58/tf.nn.convolution_217/convolution/filter",
          "shape": [
            3,
            3,
            32,
            16
          ],
          "dtype": "float32",
          "quantization": {
            "dtype": "uint8",
            "min": -0.6890318814445945,
            "scale": 0.0043064492590287155,
            "original_dtype": "float32"
          }
        },
        {
          "name": "model_58/tf.math.add_127/Add/y",
          "shape": [
            16
          ],
          "dtype": "float32",
          "quantization": {
            "dtype": "uint8",
            "min": 0.01401403546333313,
            "scale": 0.009162592303519155,
            "original_dtype": "float32"
          }
        },
        {
          "name": "model_58/tf.nn.convolution_218/convolution/filter",
          "shape": [
            3,
            3,
            16,
            32
          ],
          "dtype": "float32",
          "quantization": {
            "dtype": "uint8",
            "min": -1.2097961388382257,
            "scale": 0.008641400991701612,
            "original_dtype": "float32"
          }
        },
        {
          "name": "model_58/tf.math.add_128/Add/y",
          "shape": [
            32
          ],
          "dtype": "float32",
          "quantization": {
            "dtype": "uint8",
            "min": -1.7106051893795235,
            "scale": 0.021930835761275944,
            "original_dtype": "float32"
          }
        },
        {
          "name": "model_58/tf.concat_28/concat/axis",
          "shape": [],
          "dtype": "int32"
        },
        {
          "name": "model_58/tf.nn.convolution_219/convolution/filter",
          "shape": [
            1,
            1,
            96,
            128
          ],
          "dtype": "float32",
          "quantization": {
            "dtype": "uint8",
            "min": -1.0848019796259263,
            "scale": 0.008891819505130544,
            "original_dtype": "float32"
          }
        },
        {
          "name": "model_58/tf.math.add_131/Add/y",
          "shape": [
            128
          ],
          "dtype": "float32",
          "quantization": {
            "dtype": "uint8",
            "min": -2.975147533416748,
            "scale": 0.030358648300170897,
            "original_dtype": "float32"
          }
        },
        {
          "name": "model_58/tf.compat.v1.pad_10/Pad/paddings",
          "shape": [
            4,
            2
          ],
          "dtype": "int32"
        },
        {
          "name": "model_58/tf.nn.convolution_220/convolution/filter",
          "shape": [
            3,
            3,
            128,
            128
          ],
          "dtype": "float32",
          "quantization": {
            "dtype": "uint8",
            "min": -0.527676453076157,
            "scale": 0.003716031359691246,
            "original_dtype": "float32"
          }
        },
        {
          "name": "model_58/tf.math.add_132/Add/y",
          "shape": [
            128
          ],
          "dtype": "float32",
          "quantization": {
            "dtype": "uint8",
            "min": -2.326394880519194,
            "scale": 0.01861115904415355,
            "original_dtype": "float32"
          }
        },
        {
          "name": "model_58/tf.nn.convolution_221/convolution/filter",
          "shape": [
            1,
            1,
            128,
            128
          ],
          "dtype": "float32",
          "quantization": {
            "dtype": "uint8",
            "min": -2.362427930270924,
            "scale": 0.016995884390438303,
            "original_dtype": "float32"
          }
        },
        {
          "name": "model_58/tf.math.add_133/Add/y",
          "shape": [
            128
          ],
          "dtype": "float32",
          "quantization": {
            "dtype": "uint8",
            "min": -3.2887574869043688,
            "scale": 0.02673786574718999,
            "original_dtype": "float32"
          }
        },
        {
          "name": "model_58/tf.strided_slice_28/ones_like/tensor",
          "shape": [
            4
          ],
          "dtype": "int32"
        },
        {
          "name": "model_58/tf.strided_slice_28/StridedSlice/end",
          "shape": [
            4
          ],
          "dtype": "int32"
        },
        {
          "name": "model_58/tf.strided_slice_28/ones_like",
          "shape": [
            4
          ],
          "dtype": "int32"
        },
        {
          "name": "model_58/tf.nn.convolution_223/convolution/filter",
          "shape": [
            1,
            1,
            64,
            32
          ],
          "dtype": "float32",
          "quantization": {
            "dtype": "uint8",
            "min": -1.775791429538353,
            "scale": 0.01830712813957065,
            "original_dtype": "float32"
          }
        },
        {
          "name": "model_58/tf.math.add_135/Add/y",
          "shape": [
            32
          ],
          "dtype": "float32",
          "quantization": {
            "dtype": "uint8",
            "min": -1.877759552936928,
            "scale": 0.014013130992066627,
            "original_dtype": "float32"
          }
        },
        {
          "name": "model_58/tf.concat_29/concat/axis",
          "shape": [],
          "dtype": "int32"
        },
        {
          "name": "model_58/tf.nn.convolution_228/convolution/filter",
          "shape": [
            1,
            1,
            64,
            64
          ],
          "dtype": "float32",
          "quantization": {
            "dtype": "uint8",
            "min": -0.7804380949805764,
            "scale": 0.005912409810458912,
            "original_dtype": "float32"
          }
        },
        {
          "name": "model_58/tf.math.add_144/Add/y",
          "shape": [
            64
          ],
          "dtype": "float32",
          "quantization": {
            "dtype": "uint8",
            "min": -3.78798638605604,
            "scale": 0.029826664457134174,
            "original_dtype": "float32"
          }
        },
        {
          "name": "model_58/tf.concat_30/concat/axis",
          "shape": [],
          "dtype": "int32"
        },
        {
          "name": "model_58/tf.nn.convolution_229/convolution/filter",
          "shape": [
            1,
            1,
            192,
            128
          ],
          "dtype": "float32",
          "quantization": {
            "dtype": "uint8",
            "min": -0.7730314175287882,
            "scale": 0.005768891175587972,
            "original_dtype": "float32"
          }
        },
        {
          "name": "model_58/tf.math.add_145/Add/y",
          "shape": [
            128
          ],
          "dtype": "float32",
          "quantization": {
            "dtype": "uint8",
            "min": -1.9070578173095105,
            "scale": 0.012383492320191626,
            "original_dtype": "float32"
          }
        },
        {
          "name": "model_58/tf.compat.v1.pad_11/Pad/paddings",
          "shape": [
            4,
            2
          ],
          "dtype": "int32"
        },
        {
          "name": "model_58/tf.nn.convolution_230/convolution/filter",
          "shape": [
            3,
            3,
            128,
            256
          ],
          "dtype": "float32",
          "quantization": {
            "dtype": "uint8",
            "min": -0.4692029714584351,
            "scale": 0.003066686087963628,
            "original_dtype": "float32"
          }
        },
        {
          "name": "model_58/tf.math.add_146/Add/y",
          "shape": [
            256
          ],
          "dtype": "float32",
          "quantization": {
            "dtype": "uint8",
            "min": -5.156516930636238,
            "scale": 0.02787306448992561,
            "original_dtype": "float32"
          }
        },
        {
          "name": "model_58/tf.nn.convolution_231/convolution/filter",
          "shape": [
            1,
            1,
            256,
            256
          ],
          "dtype": "float32",
          "quantization": {
            "dtype": "uint8",
            "min": -1.009445117034164,
            "scale": 0.011342079966676001,
            "original_dtype": "float32"
          }
        },
        {
          "name": "model_58/tf.math.add_147/Add/y",
          "shape": [
            256
          ],
          "dtype": "float32",
          "quantization": {
            "dtype": "uint8",
            "min": -2.6289589489207548,
            "scale": 0.01674496145809398,
            "original_dtype": "float32"
          }
        },
        {
          "name": "model_58/tf.strided_slice_30/ones_like/tensor",
          "shape": [
            4
          ],
          "dtype": "int32"
        },
        {
          "name": "model_58/tf.strided_slice_30/StridedSlice/end",
          "shape": [
            4
          ],
          "dtype": "int32"
        },
        {
          "name": "model_58/tf.strided_slice_30/ones_like",
          "shape": [
            4
          ],
          "dtype": "int32"
        },
        {
          "name": "model_58/tf.nn.convolution_233/convolution/filter",
          "shape": [
            1,
            1,
            128,
            64
          ],
          "dtype": "float32",
          "quantization": {
            "dtype": "uint8",
            "min": -0.9238458380979649,
            "scale": 0.008322935478360044,
            "original_dtype": "float32"
          }
        },
        {
          "name": "model_58/tf.math.add_149/Add/y",
          "shape": [
            64
          ],
          "dtype": "float32",
          "quantization": {
            "dtype": "uint8",
            "min": -1.4050863097695743,
            "scale": 0.007168807702905991,
            "original_dtype": "float32"
          }
        },
        {
          "name": "model_58/tf.concat_31/concat/axis",
          "shape": [],
          "dtype": "int32"
        },
        {
          "name": "model_58/tf.nn.convolution_238/convolution/filter",
          "shape": [
            1,
            1,
            128,
            128
          ],
          "dtype": "float32",
          "quantization": {
            "dtype": "uint8",
            "min": -0.9343956077800077,
            "scale": 0.00662691920411353,
            "original_dtype": "float32"
          }
        },
        {
          "name": "model_58/tf.math.add_158/Add/y",
          "shape": [
            128
          ],
          "dtype": "float32",
          "quantization": {
            "dtype": "uint8",
            "min": -4.279194340986364,
            "scale": 0.02833903537077062,
            "original_dtype": "float32"
          }
        },
        {
          "name": "model_58/tf.concat_32/concat/axis",
          "shape": [],
          "dtype": "int32"
        },
        {
          "name": "model_58/tf.nn.convolution_239/convolution/filter",
          "shape": [
            1,
            1,
            384,
            256
          ],
          "dtype": "float32",
          "quantization": {
            "dtype": "uint8",
            "min": -0.8944720829234404,
            "scale": 0.007213484539705164,
            "original_dtype": "float32"
          }
        },
        {
          "name": "model_58/tf.math.add_159/Add/y",
          "shape": [
            256
          ],
          "dtype": "float32",
          "quantization": {
            "dtype": "uint8",
            "min": -2.1416652903837314,
            "scale": 0.017847210753197763,
            "original_dtype": "float32"
          }
        },
        {
          "name": "model_58/tf.nn.convolution_240/convolution/filter",
          "shape": [
            1,
            1,
            256,
            128
          ],
          "dtype": "float32",
          "quantization": {
            "dtype": "uint8",
            "min": -0.7603413556136337,
            "scale": 0.005549936902289297,
            "original_dtype": "float32"
          }
        },
        {
          "name": "model_58/tf.math.add_160/Add/y",
          "shape": [
            128
          ],
          "dtype": "float32",
          "quantization": {
            "dtype": "uint8",
            "min": 0.8099945783615112,
            "scale": 0.01042481356976079,
            "original_dtype": "float32"
          }
        },
        {
          "name": "model_58/tf.concat_33/concat/axis",
          "shape": [],
          "dtype": "int32"
        },
        {
          "name": "model_58/tf.nn.convolution_241/convolution/filter",
          "shape": [
            1,
            1,
            512,
            256
          ],
          "dtype": "float32",
          "quantization": {
            "dtype": "uint8",
            "min": -1.44418764184503,
            "scale": 0.008445541765175613,
            "original_dtype": "float32"
          }
        },
        {
          "name": "model_58/tf.math.add_161/Add/y",
          "shape": [
            256
          ],
          "dtype": "float32",
          "quantization": {
            "dtype": "uint8",
            "min": -10.628920566334443,
            "scale": 0.07230558208390778,
            "original_dtype": "float32"
          }
        },
        {
          "name": "model_58/tf.nn.convolution_242/convolution/filter",
          "shape": [
            1,
            1,
            256,
            256
          ],
          "dtype": "float32",
          "quantization": {
            "dtype": "uint8",
            "min": -3.870626954471364,
            "scale": 0.030719261543423523,
            "original_dtype": "float32"
          }
        },
        {
          "name": "model_58/tf.math.add_162/Add/y",
          "shape": [
            256
          ],
          "dtype": "float32",
          "quantization": {
            "dtype": "uint8",
            "min": -5.515436115451887,
            "scale": 0.03383703138314041,
            "original_dtype": "float32"
          }
        },
        {
          "name": "model_58/tf.nn.convolution_243/convolution/filter",
          "shape": [
            1,
            1,
            128,
            256
          ],
          "dtype": "float32",
          "quantization": {
            "dtype": "uint8",
            "min": -0.7530811113469741,
            "scale": 0.008367567903855268,
            "original_dtype": "float32"
          }
        },
        {
          "name": "model_58/tf.math.add_163/Add/y",
          "shape": [
            256
          ],
          "dtype": "float32",
          "quantization": {
            "dtype": "uint8",
            "min": -10.274127615199369,
            "scale": 0.05436046357248343,
            "original_dtype": "float32"
          }
        },
        {
          "name": "model_58/tf.compat.v1.transpose_48/transpose/perm",
          "shape": [
            4
          ],
          "dtype": "int32"
        },
        {
          "name": "model_58/tf.reshape_26/Reshape/shape",
          "shape": [
            4
          ],
          "dtype": "int32"
        },
        {
          "name": "model_58/tf.strided_slice_33/StridedSlice/begin",
          "shape": [
            4
          ],
          "dtype": "int32"
        },
        {
          "name": "model_58/tf.strided_slice_33/StridedSlice/end",
          "shape": [
            4
          ],
          "dtype": "int32"
        },
        {
          "name": "model_58/tf.strided_slice_33/ones_like",
          "shape": [
            4
          ],
          "dtype": "int32"
        },
        {
          "name": "model_58/tf.reshape_29/Reshape/shape",
          "shape": [
            4
          ],
          "dtype": "int32"
        },
        {
          "name": "model_58/tf.compat.v1.transpose_64/transpose/perm",
          "shape": [
            4
          ],
          "dtype": "int32"
        },
        {
          "name": "model_58/tf.nn.convolution_371/convolution/filter",
          "shape": [
            3,
            3,
            1,
            1
          ],
          "dtype": "float32",
          "quantization": {
            "dtype": "uint8",
            "min": -0.5325117240057272,
            "scale": 0.002182425098384128,
            "original_dtype": "float32"
          }
        },
        {
          "name": "model_58/tf.concat_34/concat/axis",
          "shape": [],
          "dtype": "int32"
        },
        {
          "name": "model_58/tf.nn.convolution_372/convolution/filter",
          "shape": [
            1,
            1,
            128,
            128
          ],
          "dtype": "float32",
          "quantization": {
            "dtype": "uint8",
            "min": -1.330498758951823,
            "scale": 0.009783079109939875,
            "original_dtype": "float32"
          }
        },
        {
          "name": "model_58/tf.nn.convolution_373/convolution/filter",
          "shape": [
            1,
            1,
            128,
            256
          ],
          "dtype": "float32",
          "quantization": {
            "dtype": "uint8",
            "min": -0.43698789185168696,
            "scale": 0.0035818679659974343,
            "original_dtype": "float32"
          }
        },
        {
          "name": "model_58/tf.math.add_170/Add/y",
          "shape": [
            256
          ],
          "dtype": "float32",
          "quantization": {
            "dtype": "uint8",
            "min": -2.6183043101254633,
            "scale": 0.010955248159520767,
            "original_dtype": "float32"
          }
        },
        {
          "name": "model_58/tf.nn.convolution_374/convolution/filter",
          "shape": [
            1,
            1,
            256,
            128
          ],
          "dtype": "float32",
          "quantization": {
            "dtype": "uint8",
            "min": -2.6667274727540855,
            "scale": 0.01814100321601419,
            "original_dtype": "float32"
          }
        },
        {
          "name": "model_58/tf.concat_35/concat/axis",
          "shape": [],
          "dtype": "int32"
        },
        {
          "name": "model_58/tf.nn.convolution_375/convolution/filter",
          "shape": [
            1,
            1,
            256,
            256
          ],
          "dtype": "float32",
          "quantization": {
            "dtype": "uint8",
            "min": -0.3316092540236081,
            "scale": 0.002908853105470246,
            "original_dtype": "float32"
          }
        },
        {
          "name": "model_58/tf.math.add_174/Add/y",
          "shape": [
            256
          ],
          "dtype": "float32",
          "quantization": {
            "dtype": "uint8",
            "min": -2.9601580872255213,
            "scale": 0.018386075075934916,
            "original_dtype": "float32"
          }
        },
        {
          "name": "model_58/tf.concat_43/concat/axis",
          "shape": [],
          "dtype": "int32"
        },
        {
          "name": "model_58/tf.nn.convolution_399/convolution/filter",
          "shape": [
            1,
            1,
            384,
            256
          ],
          "dtype": "float32",
          "quantization": {
            "dtype": "uint8",
            "min": -1.6490322744145114,
            "scale": 0.012783195925693887,
            "original_dtype": "float32"
          }
        },
        {
          "name": "model_58/tf.math.add_207/Add/y",
          "shape": [
            256
          ],
          "dtype": "float32",
          "quantization": {
            "dtype": "uint8",
            "min": -3.98524229666766,
            "scale": 0.025064416960173964,
            "original_dtype": "float32"
          }
        },
        {
          "name": "model_58/tf.strided_slice_41/ones_like/tensor",
          "shape": [
            4
          ],
          "dtype": "int32"
        },
        {
          "name": "model_58/tf.strided_slice_41/StridedSlice/end",
          "shape": [
            4
          ],
          "dtype": "int32"
        },
        {
          "name": "model_58/tf.strided_slice_41/ones_like",
          "shape": [
            4
          ],
          "dtype": "int32"
        },
        {
          "name": "model_58/tf.nn.convolution_402/convolution/filter",
          "shape": [
            1,
            1,
            128,
            64
          ],
          "dtype": "float32",
          "quantization": {
            "dtype": "uint8",
            "min": -1.1430474636601466,
            "scale": 0.01078346663830327,
            "original_dtype": "float32"
          }
        },
        {
          "name": "model_58/tf.math.add_211/Add/y",
          "shape": [
            64
          ],
          "dtype": "float32",
          "quantization": {
            "dtype": "uint8",
            "min": -1.2131640315055847,
            "scale": 0.00717848539352417,
            "original_dtype": "float32"
          }
        },
        {
          "name": "model_58/tf.concat_45/concat/axis",
          "shape": [],
          "dtype": "int32"
        },
        {
          "name": "model_58/tf.nn.convolution_409/convolution/filter",
          "shape": [
            1,
            1,
            128,
            128
          ],
          "dtype": "float32",
          "quantization": {
            "dtype": "uint8",
            "min": -0.9643184465520522,
            "scale": 0.006839137918808881,
            "original_dtype": "float32"
          }
        },
        {
          "name": "model_58/tf.math.add_222/Add/y",
          "shape": [
            128
          ],
          "dtype": "float32",
          "quantization": {
            "dtype": "uint8",
            "min": -1.608213270411772,
            "scale": 0.01985448481989842,
            "original_dtype": "float32"
          }
        },
        {
          "name": "model_58/tf.concat_46/concat/axis",
          "shape": [],
          "dtype": "int32"
        },
        {
          "name": "model_58/tf.nn.convolution_410/convolution/filter",
          "shape": [
            1,
            1,
            384,
            256
          ],
          "dtype": "float32",
          "quantization": {
            "dtype": "uint8",
            "min": -1.6587744133145201,
            "scale": 0.010701770408480775,
            "original_dtype": "float32"
          }
        },
        {
          "name": "model_58/tf.math.add_223/Add/y",
          "shape": [
            256
          ],
          "dtype": "float32",
          "quantization": {
            "dtype": "uint8",
            "min": -1.8696178167474036,
            "scale": 0.011195316267948525,
            "original_dtype": "float32"
          }
        },
        {
          "name": "model_58/tf.compat.v1.nn.depthwise_conv2d_10/depthwise/filter_in",
          "shape": [
            3,
            3,
            256,
            1
          ],
          "dtype": "float32",
          "quantization": {
            "dtype": "uint8",
            "min": -4.9991663671007345,
            "scale": 0.03520539695141362,
            "original_dtype": "float32"
          }
        },
        {
          "name": "model_58/tf.math.add_225/Add/y",
          "shape": [
            256
          ],
          "dtype": "float32",
          "quantization": {
            "dtype": "uint8",
            "min": -2.351593008228377,
            "scale": 0.01754920155394311,
            "original_dtype": "float32"
          }
        },
        {
          "name": "model_58/tf.nn.convolution_413/convolution/filter",
          "shape": [
            1,
            1,
            256,
            64
          ],
          "dtype": "float32",
          "quantization": {
            "dtype": "uint8",
            "min": -0.5228934645652771,
            "scale": 0.004053437709808349,
            "original_dtype": "float32"
          }
        },
        {
          "name": "model_58/tf.math.add_227/Add/y",
          "shape": [
            64
          ],
          "dtype": "float32",
          "quantization": {
            "dtype": "uint8",
            "min": -2.002981980641683,
            "scale": 0.014307014147440593,
            "original_dtype": "float32"
          }
        },
        {
          "name": "model_58/tf.compat.v1.nn.depthwise_conv2d_11/depthwise/filter_in",
          "shape": [
            3,
            3,
            64,
            1
          ],
          "dtype": "float32",
          "quantization": {
            "dtype": "uint8",
            "min": -1.924428986568077,
            "scale": 0.015395431892544616,
            "original_dtype": "float32"
          }
        },
        {
          "name": "model_58/tf.math.add_229/Add/y",
          "shape": [
            64
          ],
          "dtype": "float32",
          "quantization": {
            "dtype": "uint8",
            "min": -0.5800134761660707,
            "scale": 0.005800134761660707,
            "original_dtype": "float32"
          }
        },
        {
          "name": "model_58/tf.nn.convolution_415/convolution/filter",
          "shape": [
            1,
            1,
            64,
            64
          ],
          "dtype": "float32",
          "quantization": {
            "dtype": "uint8",
            "min": -0.7414615056094002,
            "scale": 0.005533294817980598,
            "original_dtype": "float32"
          }
        },
        {
          "name": "model_58/tf.math.add_230/Add/y",
          "shape": [
            64
          ],
          "dtype": "float32",
          "quantization": {
            "dtype": "uint8",
            "min": -0.541626730152205,
            "scale": 0.005887247066871793,
            "original_dtype": "float32"
          }
        },
        {
          "name": "model_58/tf.nn.convolution_416/convolution/filter",
          "shape": [
            1,
            1,
            64,
            34
          ],
          "dtype": "float32",
          "quantization": {
            "dtype": "uint8",
            "min": -0.3872860179227941,
            "scale": 0.0022130629595588235,
            "original_dtype": "float32"
          }
        },
        {
          "name": "model_58/tf.math.add_231/Add/y",
          "shape": [
            34
          ],
          "dtype": "float32",
          "quantization": {
            "dtype": "uint8",
            "min": -8.0859375,
            "scale": 0.0004136029411764706,
            "original_dtype": "float32"
          }
        },
        {
          "name": "model_58/tf.concat_47/concat/axis",
          "shape": [],
          "dtype": "int32"
        },
        {
          "name": "model_58/tf.compat.v1.transpose_84/transpose/perm",
          "shape": [
            4
          ],
          "dtype": "int32"
        },
        {
          "name": "model_58/tf.reshape_41/Reshape/shape",
          "shape": [
            3
          ],
          "dtype": "int32"
        },
        {
          "name": "model_58/tf.concat_48/concat/axis",
          "shape": [],
          "dtype": "int32"
        },
        {
          "name": "model_58/tf.strided_slice_43/StridedSlice/begin",
          "shape": [
            3
          ],
          "dtype": "int32"
        },
        {
          "name": "model_58/tf.strided_slice_43/StridedSlice/end",
          "shape": [
            3
          ],
          "dtype": "int32"
        },
        {
          "name": "model_58/tf.strided_slice_43/StridedSlice/strides",
          "shape": [
            3
          ],
          "dtype": "int32"
        },
        {
          "name": "model_58/output0/concat/axis",
          "shape": [],
          "dtype": "int32"
        }
      ]
    }
  ]
}